check_point_critic.pth (torch_old, 89527 bytes, 9 tensors)

fc1.weight f4 [128, 33]
-0.0660084 -0.21762675 -0.14261268 -0.013191694 -0.21419644 0.10703491 0.027495202 -0.029464856
0.13043416 -0.26869962 -0.02727297 -0.02671713 -0.023859419 0.019354386 0.101792775 0.049729925
-0.10361617 -0.007876842 0.11042894 0.04243934 -0.009715938 0.016158033 0.057560716 -0.10977181
0.034271736 0.026394028 -0.37862995 0.23821758 0.17073017 0.0036654249 -0.15869652 -0.034554366
-1.6640295 -0.12516361 0.20393516 0.20585968 -0.09508181 -0.08216229 -0.08208456 0.10575031
-0.1570144 0.027721694 -0.050976988 -0.07453136 -0.027557388 0.14078213 0.20731743 0.06907612
0.066677004 -0.0062461593 -0.21859089 0.0048460374 0.049343795 0.115012646 -0.0863318 0.15863222
0.27747214 0.20274988 0.058381904 0.077222385 0.2081261 -0.03311261 -0.04533005 -0.18112203
-0.07430355 -0.46791968 -0.44677877 -0.11547969 -0.13898131 -0.13760602 0.16201726 0.22620085
-0.17681943 -0.20274745 -0.01831067 0.23657095 -0.041662723 0.028984683 0.05417583 0.17882335
0.15921044 0.12591419 0.046816878 -0.04929966 -0.089943655 0.11278588 0.087585956 0.08240218
-0.011955146 -0.07928376 0.07603721 0.004910949 -0.044331472 0.14056753 0.26455244 0.06281
-0.20445172 -0.008460656 -0.077557676 -0.14888941 0.02944198 0.10706309 0.021071868 0.2533055
0.117124595 0.0767872 -0.027118908 0.103837594 -0.020857314 -0.023242433 -0.03858731 0.005310612
0.12393224 -0.10369302 0.011358606 0.07734017 0.08325538 -0.15473434 -0.09533909 -0.014642709
0.023340305 0.029361475 0.038740493 0.0074958354 -0.00871255 -0.028288083 0.15538526 0.16891058
-0.038344864 -0.20893487 -0.045087654 -2.4110134 -0.19246006 -0.011739984 -0.11703318 -0.3286996
0.18947287 0.2183594 -0.24323297 0.017342655 -0.09336299 -0.008203036 -0.04428654 -0.16577111
0.031383824 0.12947704 0.15536824 0.2656721 0.08826765 0.097014174 0.32495168 0.06231385
0.03189567 0.12256799 0.1828619 -0.18533036 0.048357222 -0.21797693 -0.009016744 0.46595037
-0.23159406 -0.000849925 -0.47601902 0.013586797 -0.77275276 0.2535547 -0.012514148 -0.17927134
0.13148996 0.17160602 0.14411682 0.13347878 -0.033371747 0.06900391 0.079712324 0.052432567
-0.02629056 -0.041253626 -0.10007664 -0.07003507 0.1409982 -0.03458249 0.13161688 -0.05939436
-0.05676451 -0.032682996 -0.06543136 -0.12339126 -0.018193113 0.008112216 0.007517889 -0.1657809
0.061477304 -0.11581677 0.07166553 -0.061989103 -0.063946635 2.0661478 0.1798277 0.2070686
0.19966796 -0.22900596 -0.12755485 0.19797319 -0.06848992 0.3242247 -0.086908534 -0.1171836
0.048213057 -0.13540183 -0.21016864 -0.11799164 0.20754175 -0.009105178 0.20277922 -0.018526306
-0.08307761 0.15040365 -0.5615542 -0.034920175 -0.110543005 -0.18694025 -0.09137343 0.06060586
-0.085120976 0.18396585 0.038153864 -0.03905564 -0.25555977 0.017781049 0.35830358 -0.6660955
0.046538666 -0.38380757 -0.14374082 -0.21655057 0.4132848 -0.12859587 0.15497103 0.06181393
-0.0740077 -0.13840535 -0.16508374 -0.07303139 -0.015889779 -0.14576402 0.12680918 -0.042241544
0.09871259 0.17646675 0.026568074 -0.05581723 -0.17160396 0.11549843 0.047064703 -0.056669995
00000000: 692f 87bd 8cd9 5ebe 0f09 12be fa21 58bc
00000010: 5056 5bbe 1e35 db3d 9e3d e13c 4860 f1bc
00000020: 8890 053e ff92 89be 906b dfbc e2dd dabc
00000030: d474 c3bc 178d 9e3c bb78 d03d 9bb1 4b3d
00000040: b734 d4bd df0d 01bc 9128 e23d e0d4 2d3d
00000050: 992f 1fbc da5d 843c c9c4 6b3d 0bd0 e0bd
00000060: 8560 0c3d 4a38 d83c c9db c1be 4fef 733e
00000070: e4d3 2e3e a037 703b 5781 22be e188 0dbd
00000080: ebfe d4bf e42a 00be 61d4 503e e1cc 523e
00000090: 41ba c2bd b444 a8bd f31b a8bd 9e93 d83d
000000a0: 62c8 20be 9b18 e33c 3fcd 50bd e6a3 98bd
000000b0: 08c0 e1bc 3129 103e 054b 543e c877 8d3d
000000c0: f48d 883d 95ac ccbb 4ad6 5fbe 82cb 9e3b
000000d0: b81c 4a3d c08b eb3d bace b0bd 7c70 223e
000000e0: d410 8e3e aa9d 4f3e dd21 6f3d c526 9e3d
000000f0: 021f 553e 17a1 07bd 01ac 39bd 0e78 39be
00000100: 762c 98bd 2b93 efbe 30c0 e4be 9e80 ecbd
00000110: 1e51 0ebe 98e8 0cbe dae7 253e 32a1 673e
00000120: 2710 35be 079d 4fbe 4200 96bc a83f 723e
00000130: 88a6 2abd 4971 ed3c 7ae7 5d3d 781d 373e
00000140: 1008 233e a6ef 003e 0ec3 3f3d 71ee 49bd
00000150: 6134 b8bd 49fc e63d 4460 b33d 79c2 a83d
00000160: 84df 43bc 865f a2bd 66b9 9b3d 07ec a03b
00000170: eb94 35bd eff0 0f3e 6b73 873e 87a2 803d
00000180: cb5b 51be 909e 0abc 8fd6 9ebd 7776 18be
00000190: 4f30 f13c e543 db3d e99e ac3c 42b1 813e
000001a0: 05df ef3d 9c42 9d3d 7928 debc cea8 d43d
000001b0: f5dc aabc ea66 bebc ba0d 1ebd a404 ae3b
000001c0: 30d0 fd3d 025d d4bd 7219 3a3c 8664 9e3d
000001d0: cc81 aa3d ae72 1ebe 2441 c3bd f9e7 6fbc
000001e0: 2b34 bf3c 7a87 f03c 5aae 1e3d a09f f53b
000001f0: 15bf 0ebc 69bc e7bc 501d 1f3e e5f6 2c3e
00000200: 810f 1dbd 06f3 55be d5ad 38bd 0b4e 1ac0
00000210: 4014 45be 1059 40bc 18af efbd 504b a8be
00000220: 2d05 423e 9b99 5f3e 1012 79be 2f12 8e3c
00000230: 1835 bfbd 0766 06bc ce65 35bd e7bf 29be
00000240: 538c 003d a195 043e da18 1f3e 2c06 883e
00000250: abc5 b43d 5eaf c63d 1160 a63e cf3c 7f3d
00000260: 09a5 023d ed04 fb3d 2640 3b3e 3ec7 3dbe
00000270: 3912 463d 5835 5fbe f7ba 13bc 0c91 ee3e
00000280: fe26 6dbe 80cd 5eba c4b8 f3be 289b 5e3c
00000290: 20d3 45bf ecd1 813e 2408 4dbc e892 37be
000002a0: 4ea5 063e 7db9 2f3e 5c93 133e a9ae 083e
000002b0: d0b0 08bd ec51 8d3d 3740 a33d 88c3 563d
000002c0: 4d5f d7bc 90f9 28bd fbf4 ccbd 8c6e 8fbd
000002d0: d561 103e 5ea6 0dbd 93c6 063e 8047 73bd
000002e0: e781 68bd 9bde 05bd e000 86bd 8fb4 fcbd
000002f0: b909 95bc 1ae9 043c a058 f63b 78c2 29be
00000300: a0cf 7b3d 5831 edbd 61c5 923d 49e8 7dbd
00000310: 74f6 82bd c43b 0440 c124 383e cb09 543e
00000320: c275 4c3e 8a80 6abe bd9d 02be 7cb9 4a3e
00000330: 7144 8cbd c800 a63e 1afd b1bd f5fd efbd
00000340: 0e7b 453d c7a6 0abe 7336 57be 9aa5 f1bd
00000350: d385 543e e22d 15bc 5ba5 4f3e 7bc4 97bc
00000360: 9824 aabd 6a03 1a3e 04c2 0fbf 7508 0fbd
00000370: 5f64 e2bd 446d 3fbe fe21 bbbd da3d 783d
00000380: e853 aebd 8b61 3c3e 3a47 1c3d cff8 1fbd
00000390: bbd8 82be 90a9 913c 9173 b73e 3c85 2abf
000003a0: 549f 3e3d 6d82 c4be cb30 13be 6fbf 5dbe
000003b0: 119a d33e a3ae 03be bab0 1e3e 9a30 7d3d
000003c0: 5991 97bd 22ba 0dbe b60b 29be 7b91 95bd
000003d0: 482b 82bc 2a43 15be 44da 013e 7805 2dbd
000003e0: d429 ca3d b3b3 343e 4aa5 d93c 9ca0 64bd
000003f0: f3b8 2fbe 718a ec3d ebc6 403d cc1e 68bd

fc1.bias f4 [128]
-0.27173206 -0.09235031 -0.28526735 -0.23948574 -0.38615894 -0.07378857 -0.27076396 -0.5494381
0.21344915 -0.11504906 -0.6370476 -0.24550894 -0.42503083 -0.51176697 -0.5353975 -0.6353675
-0.16767387 -0.4821883 -0.33543056 -0.30603534 -0.26000932 -0.23788919 0.029429244 -0.69403964
-0.4093358 -0.3547593 -0.31470573 -0.33283177 -0.53207976 -0.69785845 -0.30687332 -0.102026135
-0.46246544 -0.017736893 -0.5503578 -0.47242597 -0.4484116 -0.1212388 -0.4583244 -0.744127
-0.2896357 -0.26512107 -0.012594423 -0.67359114 -0.16204242 -0.18977119 -0.16272192 -0.073430434
-0.32048112 0.07157281 -0.50656766 -0.4515104 -0.13257499 -0.37134862 -0.31892765 -0.17149736
-0.38710722 -0.16472319 -0.35745576 -0.20594114 -0.2626143 -0.29193857 -0.3511623 -0.24132992
-0.636497 -0.42483878 -0.28242576 -0.44140384 -0.5611001 -0.22406635 0.44492972 -0.27906975
-0.35666972 -0.34538835 -0.48652214 -0.28911763 -0.51334494 -0.36041182 -0.34128425 -0.23762459
-0.3951474 0.27263084 -0.35243466 -0.27389473 -0.35842064 -0.5417177 -0.30145058 -0.43239525
-0.041275457 0.022938645 -0.61716956 -0.1851668 -0.09361464 -0.45431587 -0.17339393 -0.38006502
-0.44377744 -0.50033396 -0.8981888 -0.27476242 -0.23037605 -0.378986 -0.48174042 -0.037595626
-0.6148489 -0.48228154 -0.67054135 -0.40032712 -0.49284652 -0.41319692 -0.32934508 -0.28234822
-0.8256214 -0.59679335 -0.5455501 -0.1261829 0.18608138 -0.28809702 -0.42417052 -0.23262194
0.052778345 -0.36314934 -0.28237703 -0.15251373 -0.6273023 -0.4333384 -0.18628766 -0.65731186
00000000: 7720 8bbe 2922 bdbd 900e 92be c03b 75be
00000010: a0b6 c5be 761e 97bd 93a1 8abe faa7 0cbf
00000020: 6a92 5a3e d79e ebbd 8d15 23bf b266 7bbe
00000030: a49d d9be 2903 03bf d00f 09bf 72a7 22bf
00000040: b3b2 2bbe 63e1 f6be 8ebd abbe aab0 9cbe
00000050: f11f 85be 3999 73be 9915 f13c 95ac 31bf
00000060: 7694 d1be 03a3 b5be 1c21 a1be ed68 aabe
00000070: 6136 08bf daa6 32bf 801e 9dbe 14f3 d0bd
00000080: 45c8 ecbe f64c 91bc 40e4 0cbf d1e1 f1be
00000090: 3596 e5be 0c4c f8bd 7fa9 eabe 1b7f 3ebf
000000a0: 214b 94be f3bd 87be d758 4ebc 7870 2cbf
000000b0: 73ee 25be 6153 42be 93a0 26be b262 96bd
000000c0: 1a16 a4be c494 923d 6bae 01bf 5f2c e7be
000000d0: bdc1 07be 6821 bebe 7c4a a3be 019d 2fbe
000000e0: eb32 c6be 32ad 28be 7104 b7be 3ce2 52be
000000f0: 6275 86be f978 95be 8ccb b3be 311f 77be
00000100: 78f1 22bf 7884 d9be 1c9a 90be afff e1be
00000110: 42a4 0fbf a671 65be d4cd e33e 3be2 8ebe
00000120: 6a9d b6be bed6 b0be 6e19 f9be 3a07 94be
00000130: 936a 03bf e687 b8be cfbc aebe dc53 73be
00000140: c350 cabe 4596 8b3e 5172 b4be ee3b 8cbe
00000150: e982 b7be 03ae 0abf bb57 9abe e962 ddbe
00000160: 7410 29bd d3e9 bb3c d3fe 1dbf 5e9c 3dbe
00000170: 08b9 bfbd 179c e8be 2e8e 31be e297 c2be
00000180: cc36 e3be e315 00bf b4ef 65bf a9ad 8cbe
00000190: b3e7 6bbe 740a c2be aea6 f6be dffd 19bd
000001a0: bd66 1dbf 9bed f6be 99a8 2bbf adf7 ccbe
000001b0: 6156 fcbe 8c8e d3be eb9f a8be f28f 90be
000001c0: ed5b 53bf 73c7 18bf 2ca9 0bbf 1736 01be
000001d0: 1e8c 3e3e 7481 93be e12c d9be 7234 6ebe
000001e0: 1b2e 583d b6ee b9be b993 90be 8f2c 1cbe
000001f0: e296 20bf 88de ddbe 31c2 3ebe 9745 28bf

fc2.weight f4 [128, 132]
0.023209184 -0.27786916 -0.0017402365 -0.00082069205 0.033930015 0.12642397 -0.10980495 -0.18891281
0.04813331 -0.3301539 -0.24893475 0.031656217 0.17319652 0.08409349 -0.037784398 0.25794598
-0.4776278 -0.11460639 -0.37967193 -0.3919539 -0.13660343 -0.35442612 0.055355962 0.028194746
0.009621696 -0.045112383 -0.22751991 -1.0721742 0.07993885 -0.06954675 0.079353526 -0.13196899
0.073636174 0.005990876 -0.21874498 0.044049386 -0.033430424 0.05925675 -0.22105736 0.05278384
-0.017974488 0.12868112 0.13677818 -0.087725066 0.32039413 -0.35282576 0.32831213 0.1796885
0.16608897 0.03206142 0.05404249 0.1401986 -0.6031166 -0.16833825 0.07111591 -0.5542612
-0.26166803 -0.07440869 -0.11724097 0.1478016 -0.23155645 0.0033273352 0.07130392 0.22464833
-0.43187937 -0.11594738 0.33209494 0.16781539 -0.16164397 -0.07667328 0.10672311 0.16989617
-0.21488963 -0.28198594 -0.98957217 -0.13411385 -0.38999766 -0.014645379 0.15449995 0.13776706
-0.38796005 -0.14093533 0.06743992 -0.2725787 0.08634059 -0.27472746 -0.07259225 -0.25941297
-0.095049016 -0.28337067 0.1858459 0.21682303 0.08590415 0.14114943 -0.18734932 -0.043839898
-0.28724366 -0.5999203 -0.0402263 -0.12884986 -0.31046468 -0.04242507 -0.3615941 -0.14912209
-0.124259025 0.10696223 -0.16557841 -0.056535546 -0.15453319 0.1408477 -0.19885616 -0.2634742
0.011887514 -0.44058877 -0.16095059 -0.025823139 0.14693713 -0.057525184 -0.20058236 0.23822907
-0.094779775 0.22882509 -0.042432558 0.115055695 0.23705553 0.1778777 0.2466705 -0.295955
-0.015112927 -0.012390447 -0.039838538 -0.04584688 -0.057308465 -0.7725342 -0.3271297 -0.23563693
0.066046014 0.1739119 -0.4445717 0.25558907 -0.43788013 -0.7438267 -0.111669786 0.015833583
-0.13447501 -0.23318191 0.33303264 -0.33468667 0.28348705 -0.19749677 -0.30061847 0.5635687
-0.035601143 -0.040519565 -0.13669182 -0.21601884 -0.08817889 -0.34384075 -0.054686036 0.031328186
-0.7885625 0.14476779 0.38627645 0.06848701 -0.21575531 -0.03508249 -0.39586997 0.11694505
-0.3808994 -0.08224155 -0.1190329 0.14752683 -0.6595874 -0.5610834 -0.22746624 -0.10780529
-0.27808857 -0.067638814 -0.09658858 -0.25727826 -0.461838 -0.35650194 -0.44145906 0.3314762
0.28116092 0.18864422 -0.21007195 -0.16835539 0.03563302 0.06288326 -0.07847788 -0.16936004
-0.14319581 0.24499802 -0.53177863 0.13065134 0.024213025 0.16673696 -0.3662107 0.04578285
0.21092601 -0.30467016 -0.22417517 -0.47411594 0.25988263 -0.33109665 -0.02482617 -0.42731762
0.5861076 -0.07033316 -0.0412862 -0.33879122 -0.07389248 -0.09165627 0.09462759 0.034174077
-0.35552204 -0.091120705 -0.37134305 -0.057364322 0.071165875 -0.51040167 -0.087010615 0.016619066
0.08218243 0.002867141 -0.09866213 -0.18631452 -0.41682404 0.17902724 0.13634686 -0.47459072
-0.27276215 0.11699539 0.08658326 -0.65241855 0.28293806 -0.072381236 -0.25036538 -0.12963277
-0.32868525 -0.108077615 0.25805312 -0.4265478 -0.11282852 -0.06714124 0.023249632 -0.273877
0.064899124 -0.36017203 0.05038375 0.021952875 -0.06414526 0.26816407 -0.1505806 -0.41461357
00000000: 3021 be3c de44 8ebe a618 e4ba b623 57ba
00000010: 33fa 0a3d 4975 013e 6be1 e0bd 5c72 41be
00000020: 6f27 453d ef09 a9be c0e8 7ebe f3a9 013d
00000030: 6e5a 313e 3539 ac3d d0c3 1abd 7f11 843e
00000040: a28b f4be c1b6 eabd 5c64 c2be 2eae c8be
00000050: c5e1 0bbe 5777 b5be efbc 623d abf8 e63c
00000060: 51a4 1d3c c3c7 38bd fbfa 68be 013d 89bf
00000070: fbb6 a33d 876e 8ebd 1a84 a23d e122 07be
00000080: 90ce 963d 1c4f c43b affe 5fbe 216d 343d
00000090: 57ee 08bd 35b7 723d dc5c 62be de33 583d
000000a0: 3c3f 93bc fcc4 033e 940f 0c3e 33a9 b3bd
000000b0: b30a a43e 94a5 b4be 8718 a83e 4300 383e
000000c0: 3a13 2a3e d652 033d a85b 5d3d 3990 0f3e
000000d0: d965 1abf dd60 2cbe 38a5 913d 10e4 0dbf
000000e0: 5af9 85be 9563 98bd 091c f0bd 4d59 173e
000000f0: 221d 6dbe 6c0f 5a3b ca07 923d 360a 663e
00000100: 4b1f ddbe d275 edbd 5908 aa3e ccd7 2b3e
00000110: ff85 25be e106 9dbd a591 da3d 43f9 2d3e
00000120: 070c 5cbe 7660 90be 9a54 7dbf 2455 09be
00000130: c6ad c7be 2cf3 6fbc 3c35 1e3e cf12 0d3e
00000140: b3a2 c6be 5a51 10be f11d 8a3d 6f8f 8bbe
00000150: 56d3 b03d 14a9 8cbe 3fab 94bd c7d1 84be
00000160: 0fa9 c2bd f615 91be 634e 3e3e db06 5e3e
00000170: 84ee af3d 7a89 103e 80d8 3fbe 7791 33bd
00000180: 9a11 93be 6094 19bf 55c4 24bd 38f1 03be
00000190: 3af5 9ebe e9c5 2dbd dd22 b9be 76b3 18be
000001a0: 847b febd 030f db3d 638d 29be d191 67bd
000001b0: f33d 1ebe 613a 103e f3a0 4bbe 17e6 86be
000001c0: d9c3 423c da94 e1be 3bd0 24be 0c8b d3bc
000001d0: b076 163e 879f 6bbd 7665 4dbe 52f2 733e
000001e0: e61b c2bd 2051 6a3e c3cd 2dbd 52a2 eb3d
000001f0: afbe 723e 9225 363e 3197 7c3e 6a87 97be
00000200: 369c 77bc 4d01 4bbc bc2d 23bd f0c9 3bbd
00000210: 48bc 6abd cdc4 45bf 8b7d a7be cf4a 71be
00000220: 2243 873d f615 323e e79e e3be 92dc 823e
00000230: d331 e0be 6d6b 3ebf 21b3 e4bd 6eb5 813c
00000240: d1b3 09be 3dc7 6ebe 4183 aa3e 0d5c abbe
00000250: 3725 913e 983c 4abe aaea 99be 0a46 103f
00000260: 81d2 11bd d8f7 25bd f1f8 0bbe 0b34 5dbe
00000270: 2297 b4bd e50b b0be 77fe 5fbd fc51 003d
00000280: 3bdf 49bf 023e 143e 07c6 c53e eb42 8c3d
00000290: f6ee 5cbe a8b2 0fbd 78af cabe e380 ef3d
000002a0: 3f05 c3be 426e a8bd 85c7 f3bd 4611 173e
000002b0: b8da 28bf 29a3 0fbf e9ec 68be 05c9 dcbd
000002c0: a061 8ebe 3886 8abd 3cd0 c5bd fab9 83be
000002d0: 0876 ecbe 6c87 b6be ec06 e2be 40b7 a93e
000002e0: 53f4 8f3e f32b 413e 1a1d 57be 5b65 2cbe
000002f0: eef3 113d f0c8 803d 03b9 a0bd b86c 2dbe
00000300: eca1 12be c3e0 7a3e a522 08bf 77c9 053e
00000310: 655a c63c 18bd 2a3e f87f bbbe cc86 3b3d
00000320: fdfc 573e bafd 9bbe 2d8e 65be 53bf f2be
00000330: 560f 853e 8085 a9be 4160 cbbc 60c9 dabe
00000340: 260b 163f d50a 90bd b81b 29bd 0b76 adbe
00000350: f154 97bd 48b6 bbbd 1ccc c13d 1efa 0b3d
00000360: fc06 b6be 7e9d babd ad20 bebe daf6 6abd
00000370: 6abf 913d afa9 02bf 9f32 b2bd b524 883c
00000380: 434f a83d a5e6 3b3b 5f0f cabd 3cc9 3ebe
00000390: f669 d5be eb52 373e 839e 0b3e 8efd f2be
000003a0: 7ba7 8bbe 479b ef3d 9052 b13d e704 27bf
000003b0: 42dd 903e 9d3c 94bd e42f 80be 74be 04be
000003c0: 6f49 a8be cc57 ddbd 8a1f 843e 7964 dabe
000003d0: a412 e7bd 5981 89bd 0376 be3c 9b39 8cbe
000003e0: d5e9 843d 7868 b8be 315f 4e3d 84d6 b33c
000003f0: 975e 83bd cd4c 893e cd31 1abe 3b48 d4be

fc2.bias f4 [128]
0.29078016 -0.09082602 0.3644601 -0.19673637 -0.37119925 0.49738806 0.39562356 -0.11814488
0.33676058 -0.045573335 -0.14243416 -0.2427431 0.011424558 -0.017374035 -0.07650189 -0.10259118
-0.03306134 0.021146571 0.39892226 0.47816408 0.15589336 -0.024865193 0.07815024 0.42953977
-0.1397636 0.010991062 0.37993184 -0.0075733536 -0.24141994 -0.10588779 0.66519713 0.59559196
-0.02572664 0.06737731 -0.22491245 0.58418053 -0.08880898 0.2263147 -0.08502876 0.2622442
-0.19129731 -0.09958189 0.18918395 0.5401335 0.02620266 -0.15676832 -0.074332766 -0.19495733
0.14392173 0.13761371 -0.07637465 -0.22143683 -0.1453919 0.0033959523 -0.11778914 -0.096998714
0.23247714 -0.09281906 0.09155527 -0.32349434 -0.15553199 -0.3452073 -0.097642206 -0.3567035
0.09878843 0.045626167 -0.18971503 -0.18402979 -0.09137044 0.16339734 0.25766146 -0.2333351
0.056940842 -0.029744716 -0.24678615 -0.14821021 -0.14880706 0.33313036 -0.43244302 -0.1817324
0.00038192206 -0.022870138 -0.1341201 0.34212065 -0.08995006 0.3483515 0.66051763 -0.09889524
-0.18300338 -0.16934341 -0.09127765 -0.16579033 -0.17200279 -0.118507445 -0.056133043 -0.3143097
-0.23379762 0.44668612 0.020409469 -0.03266199 -0.08875649 -0.27506816 -0.20088395 -0.2622889
-0.47358152 0.30244774 -0.10784772 -0.14949901 -0.08388221 0.8613461 -0.43605638 -0.060243916
-0.13007703 0.49710843 -0.051338255 -0.056348853 0.18528487 -0.05273217 -0.04518043 0.002061527
0.15951425 -0.1612258 -0.11183284 0.18901095 -0.06018429 -0.09133546 -0.0631996 0.05220899
00000000: 23e1 943e fe02 babd 849a ba3e 4275 49be
00000010: d40d bebe a6a9 fe3e 2c8f ca3e f1f5 f1bd
00000020: e26b ac3e 1bab 3abd 43da 11be a691 78be
00000030: 122e 3b3c fe53 8ebc 06ad 9cbd 531b d2bd
00000040: 546b 07bd 933b ad3c 8a3f cc3e ecd1 f43e
00000050: 82a2 1f3e 17b2 cbbc 3c0d a03d a3ec db3e
00000060: 301e 0fbe db13 343c 6d86 c23e e529 f8bb
00000070: ca36 77be b3db d8bd 5c4a 2a3f b778 183f
00000080: adc0 d2bc 1dfd 893d 734f 66be db8c 153f
00000090: 7ce1 b5bd 0abf 673e 8f23 aebd df44 863e
000000a0: 71e3 43be 97f1 cbbd 70b9 413e 3046 0a3f
000000b0: f6a6 d63c e087 20be c73b 98bd e5a2 47be
000000c0: 3860 133e 9cea 0c3e 506a 9cbd 56c0 62be
000000d0: 9de1 14be a08e 5e3b 6f3b f1bd 43a7 c6bd
000000e0: 7d0e 6e3e eb17 bebd 5481 bb3d 0da1 a5be
000000f0: c743 1fbe 03bf b0be a3f8 c7bd d7a1 b6be
00000100: 9751 ca3d 81e2 3a3d a844 42be 4e72 3cbe
00000110: 6d20 bbbd a251 273e 34ec 833e 65ef 6ebe
00000120: cd3a 693d 31ab f3bc 82b5 7cbe 6bc4 17be
00000130: e160 18be 1090 aa3e 2c69 ddbe 0f18 3abe
00000140: b63c c839 285a bbbc c856 09be 702a af3e
00000150: bd37 b8bd 215b b23e af17 293f 9689 cabd
00000160: 3d65 3bbe 5c68 2dbe c7ef babd f1c4 29be
00000170: 8021 30be 08b4 f2bd c3eb 65bd 33ed a0be
00000180: a568 6fbe 0bb4 e43e c231 a73c 94c8 05bd
00000190: f6c5 b5bd bcd5 8cbe 86b4 4dbe bb4a 86be
000001a0: 4779 f2be 6eda 9a3e 44df dcbd 4516 19be
000001b0: 70ca abbd 2e81 5c3f c842 dfbe 53c2 76bd
000001c0: ea32 05be ff84 fe3e 1048 52bd 0ece 66bd
000001d0: 51bb 3d3e b0fd 57bd 1d0f 39bd af1a 073b
000001e0: b457 233e 6018 25be 9e08 e5bd 168c 413e
000001f0: cd83 76bd 160e bbbd cb6e 81bd 18d9 553d

fc3.weight f4 [1, 128]
0.027376954 0.024835795 0.04522315 -0.018029492 -0.03469819 0.05517341 0.019945635 0.003934741
0.03997124 -0.0025664757 0.012604001 -0.026638815 -0.023103079 0.00034886823 0.01087987 0.012281362
-0.0004958161 -0.0163246 0.016640576 0.020403095 0.007994697 -0.0011292235 0.016593875 0.041346505
0.010378964 0.031936437 0.024434766 0.030299524 -0.18833362 0.0270526 0.058719974 0.055229086
0.022911087 0.09663069 -0.011705264 0.04952385 -0.058284428 0.03786293 -0.013940479 0.044406313
-0.03814276 -0.016399037 0.04479421 0.04809375 0.014378903 -0.0013096703 0.012774484 0.007027717
0.010126174 0.021790188 0.04633592 -0.011204269 0.00014253544 0.004800596 0.018976822 -0.022577554
0.031482197 0.011964488 0.043865412 -0.04453718 -0.015448726 -0.062172696 0.024849966 -0.014424948
0.019325411 0.022211745 0.07954927 -0.032655917 -0.01915183 0.016247876 0.0290368 -0.0908522
0.027152259 0.016823433 -0.032737337 0.018379979 -0.01936857 0.050319966 -0.022484755 0.004005468
-0.023337351 0.0046508447 -0.058028236 0.030979253 -0.010794556 0.023716893 0.07567753 -0.007049197
0.009237755 -0.0017087357 0.028578509 -0.0022043192 0.0067502586 -0.0013977432 0.02407663 -0.032936044
-0.047500815 0.042695805 0.0138036115 0.046950758 0.01952187 -0.06583618 -0.07436959 -0.05324351
-0.051557247 0.021412686 -0.017054897 0.012729973 0.000435317 0.1693914 -0.03918446 -0.07884058
-0.009360574 0.051258855 -0.018592548 0.0047023403 0.023932198 -0.010928792 -0.007527951 -0.0017829742
0.01983822 0.02696704 -0.023101328 0.02083431 -0.008834951 0.008156125 -0.1554146 -0.022103582
00000000: a245 e03c 7074 cb3c e93b 393d 96b2 93bc
00000010: b01f 0ebd 83fd 613d 0765 a33c 00ef 803b
00000020: e2b8 233d 5132 28bb 0381 4e3c a539 dabc
00000030: ab42 bdbc 4de8 b639 7b41 323c c437 493c
00000040: a8f9 01ba 2bbb 85bc d151 883c 6424 a73c
00000050: 31fc 023c 7402 94ba e1ef 873c f45a 293d
00000060: 880c 2a3c c8cf 023d 6b2b c83c b536 f83c
00000070: 87da 40be 6a9d dd3c 5b84 703d e537 623d
00000080: 08b0 bb3c 50e6 c53d 70c7 3fbc 85d9 4a3d
00000090: a7bb 6ebd 2916 1b3d 9b66 64bc 65e3 353d
000000a0: 953b 1cbd 4657 86bc 227a 373d f4fd 443d
000000b0: 7e95 6b3c 3ea9 abba 124c 513c c348 e63b
000000c0: 41e8 253c 5681 b23c bcca 3d3d 1c92 37bc
000000d0: 9175 1539 514e 9d3b 4875 9b3c 90f4 b8bc
000000e0: 7af3 003d b306 443c 38ac 333d 9e6c 36bd
000000f0: a71c 7dbc cca8 7ebd 2892 cb3c 9e56 6cbc
00000100: 5350 9e3c 68f5 b53c baea a23d 36c2 05bd
00000110: 4ce4 9cbc 441a 853c 95de ed3c b810 babd
00000120: 6a6e de3c 4cd1 893c 9617 06bd 9c91 963c
00000130: d6aa 9ebc 4f1c 4e3d f331 b8bc 4d40 833b
00000140: f92d bfbc 1d66 983b 04af 6dbd 34c8 fd3c
00000150: a6db 30bc ee49 c23c d2fc 9a3d f3fc e6bb
00000160: f459 173c a8f7 dfba 7a1d ea3c 5776 10bb
00000170: 4631 dd3b 7b34 b7ba 5a3c c53c f2e7 06bd
00000180: 3790 42bd cce1 2e3d 8b28 623c 704f 403d
00000190: 54ec 9f3c 1ed5 86bd 154f 98bd de15 5abd
000001a0: b12d 53bd a869 af3c b6b6 8bbc 6091 503c
000001b0: 423b e439 f074 2d3e e27f 20bd 2c77 a1bd
000001c0: 185d 19bc cef4 513d 664f 98bc 1716 9a3b
000001d0: 750d c43c ad0e 33bc 08ad f6bb b0b2 e9ba
000001e0: c383 a23c fbe9 dc3c ff3e bdbc b7ac aa3c
000001f0: 78c0 10bc 45a1 053c 0125 1fbe 9212 b5bc

bn2.weight f4 [128]
0.23544365 0.7748802 0.19592905 0.84387946 0.18123108 0.20410669 0.83008695 0.24513865
0.74634016 0.9338396 0.71662277 0.851795 0.82569605 0.14630133 0.6438556 0.6465388
0.9220099 0.06546986 0.9310299 0.6040791 0.8153929 0.17194283 0.38561922 0.8167287
0.9370981 0.5504328 0.6380212 0.62516016 0.7443622 0.59608203 0.9848094 0.60869735
0.19596976 0.6875267 0.029275596 0.6948576 0.79475373 0.8525616 0.18038833 0.7433997
0.86690843 0.41219944 0.39371103 0.43356353 0.37805378 0.32617497 0.05471319 0.9890901
0.81897885 0.7560666 0.5648227 0.27572155 0.37714392 0.64080936 0.46895415 0.5869604
0.70993096 0.04525298 0.13326102 0.26333207 0.33912128 0.5766642 0.9620724 0.6752725
0.4324236 0.3951187 0.39050114 0.4840454 0.47893727 0.20277369 0.92323935 0.17314017
0.06867653 0.92910886 0.36176443 0.34926534 0.17955619 0.24933046 0.068570614 0.6200024
0.6741012 0.30791062 0.1239357 0.853112 0.14318454 0.96354073 0.6609647 0.015744984
0.031410575 0.066808105 0.55358887 0.03641528 0.830446 0.9541365 0.5988504 0.98763335
0.1192323 0.21704459 0.39944404 0.32287234 0.15910572 0.33462363 0.01128298 0.9370087
0.94148785 0.12637043 0.5943502 0.10103661 0.71962863 0.32542396 0.9755154 0.9536172
0.6952893 0.14979213 0.15258193 0.18027437 0.40758693 0.9668687 0.19935465 0.3994614
0.38903964 0.89132327 0.44636697 0.6549557 0.38935643 0.099668026 0.1892702 0.6109119
00000000: 2418 713e 8c5e 463f a0a1 483e 7c08 583f
00000010: a494 393e 5801 513e 9480 543f a005 7b3e
00000020: 2610 3f3f 1d10 6f3f 9774 373f 3d0f 5a3f
00000030: d160 533f 04d0 153e b8d3 243f 9183 253f
00000040: d708 6c3f 1015 863d fa57 6e3f eea4 1a3f
00000050: 97bd 503f c811 303e e26f c53e 2215 513f
00000060: a9e5 6f3f 2ae9 0c3f 5b55 233f 7f0a 203f
00000070: 858e 3e3f d598 183f 781c 7c3f 97d3 1b3f
00000080: 4cac 483e c001 303f 60d3 ef3c 30e2 313f
00000090: fb74 4b3f 7a41 5a3f b8b7 383e 714f 3e3f
000000a0: b6ed 5d3f ce0b d33e 7e94 c93e 0afc dd3e
000000b0: 4490 c13e 6800 a73e f01a 603d 0235 7d3f
000000c0: 99a8 513f 958d 413f 3898 103f 602b 8d3e
000000d0: 0219 c13e 150c 243f c21a f03e 0943 163f
000000e0: 09be 353f 305b 393d 9475 083e 76d3 863e
000000f0: 4ea1 ad3e 44a0 133f 604a 763f a9de 2c3f
00000100: a066 dd3e 004d ca3e c4ef c73e ccd4 f73e
00000110: 4437 f53e e8a3 4f3e 6a59 6c3f a84b 313e
00000120: 48a6 8c3d 14da 6d3f 3039 b93e e8d2 b23e
00000130: 94dd 373e 7c50 7f3e c06e 8c3d 7ab8 1e3f
00000140: e591 2c3f 76a6 9d3e 00d2 fd3d 8c65 5a3f
00000150: f89e 123e 9baa 763f fc34 293f a0fb 803c
00000160: 60a8 003d b0d2 883d 00b8 0d3f 3028 153d
00000170: 1c98 543f 4a42 743f 434e 193f 8ad5 7c3f
00000180: 1030 f43d f040 5e3e ee83 cc3e 864f a53e
00000190: 9cec 223e ca53 ab3e 40dc 383c cddf 6f3f
000001a0: 5905 713f 4067 013e 5627 183f 48ec ce3d
000001b0: 9539 383f f89d a63e 61bb 793f 4220 743f
000001c0: 7bfe 313f 1c63 193e 703e 1c3e d899 383e
000001d0: 3caf d03e b584 773f a023 4c3e 3486 cc3e
000001e0: 3430 c73e c32d 643f 368a e43e 2dab 273f
000001f0: ba59 c73e c01e cc3d 0cd0 413e b964 1c3f

bn2.bias f4 [128]
0.0 0.0 0.0 0.0 0.0 0.0 0.0 0.0
0.0 0.0 0.0 0.0 0.0 0.0 0.0 0.0
0.0 0.0 0.0 0.0 0.0 0.0 0.0 0.0
0.0 0.0 0.0 0.0 0.0 0.0 0.0 0.0
0.0 0.0 0.0 0.0 0.0 0.0 0.0 0.0
0.0 0.0 0.0 0.0 0.0 0.0 0.0 0.0
0.0 0.0 0.0 0.0 0.0 0.0 0.0 0.0
0.0 0.0 0.0 0.0 0.0 0.0 0.0 0.0
0.0 0.0 0.0 0.0 0.0 0.0 0.0 0.0
0.0 0.0 0.0 0.0 0.0 0.0 0.0 0.0
0.0 0.0 0.0 0.0 0.0 0.0 0.0 0.0
0.0 0.0 0.0 0.0 0.0 0.0 0.0 0.0
0.0 0.0 0.0 0.0 0.0 0.0 0.0 0.0
0.0 0.0 0.0 0.0 0.0 0.0 0.0 0.0
0.0 0.0 0.0 0.0 0.0 0.0 0.0 0.0
0.0 0.0 0.0 0.0 0.0 0.0 0.0 0.0
00000000: 0000 0000 0000 0000 0000 0000 0000 0000
00000010: 0000 0000 0000 0000 0000 0000 0000 0000
00000020: 0000 0000 0000 0000 0000 0000 0000 0000
00000030: 0000 0000 0000 0000 0000 0000 0000 0000
00000040: 0000 0000 0000 0000 0000 0000 0000 0000
00000050: 0000 0000 0000 0000 0000 0000 0000 0000
00000060: 0000 0000 0000 0000 0000 0000 0000 0000
00000070: 0000 0000 0000 0000 0000 0000 0000 0000
00000080: 0000 0000 0000 0000 0000 0000 0000 0000
00000090: 0000 0000 0000 0000 0000 0000 0000 0000
000000a0: 0000 0000 0000 0000 0000 0000 0000 0000
000000b0: 0000 0000 0000 0000 0000 0000 0000 0000
000000c0: 0000 0000 0000 0000 0000 0000 0000 0000
000000d0: 0000 0000 0000 0000 0000 0000 0000 0000
000000e0: 0000 0000 0000 0000 0000 0000 0000 0000
000000f0: 0000 0000 0000 0000 0000 0000 0000 0000
00000100: 0000 0000 0000 0000 0000 0000 0000 0000
00000110: 0000 0000 0000 0000 0000 0000 0000 0000
00000120: 0000 0000 0000 0000 0000 0000 0000 0000
00000130: 0000 0000 0000 0000 0000 0000 0000 0000
00000140: 0000 0000 0000 0000 0000 0000 0000 0000
00000150: 0000 0000 0000 0000 0000 0000 0000 0000
00000160: 0000 0000 0000 0000 0000 0000 0000 0000
00000170: 0000 0000 0000 0000 0000 0000 0000 0000
00000180: 0000 0000 0000 0000 0000 0000 0000 0000
00000190: 0000 0000 0000 0000 0000 0000 0000 0000
000001a0: 0000 0000 0000 0000 0000 0000 0000 0000
000001b0: 0000 0000 0000 0000 0000 0000 0000 0000
000001c0: 0000 0000 0000 0000 0000 0000 0000 0000
000001d0: 0000 0000 0000 0000 0000 0000 0000 0000
000001e0: 0000 0000 0000 0000 0000 0000 0000 0000
000001f0: 0000 0000 0000 0000 0000 0000 0000 0000

bn2.running_mean f4 [128]
0.0 0.0 0.0 0.0 0.0 0.0 0.0 0.0
0.0 0.0 0.0 0.0 0.0 0.0 0.0 0.0
0.0 0.0 0.0 0.0 0.0 0.0 0.0 0.0
0.0 0.0 0.0 0.0 0.0 0.0 0.0 0.0
0.0 0.0 0.0 0.0 0.0 0.0 0.0 0.0
0.0 0.0 0.0 0.0 0.0 0.0 0.0 0.0
0.0 0.0 0.0 0.0 0.0 0.0 0.0 0.0
0.0 0.0 0.0 0.0 0.0 0.0 0.0 0.0
0.0 0.0 0.0 0.0 0.0 0.0 0.0 0.0
0.0 0.0 0.0 0.0 0.0 0.0 0.0 0.0
0.0 0.0 0.0 0.0 0.0 0.0 0.0 0.0
0.0 0.0 0.0 0.0 0.0 0.0 0.0 0.0
0.0 0.0 0.0 0.0 0.0 0.0 0.0 0.0
0.0 0.0 0.0 0.0 0.0 0.0 0.0 0.0
0.0 0.0 0.0 0.0 0.0 0.0 0.0 0.0
0.0 0.0 0.0 0.0 0.0 0.0 0.0 0.0
00000000: 0000 0000 0000 0000 0000 0000 0000 0000
00000010: 0000 0000 0000 0000 0000 0000 0000 0000
00000020: 0000 0000 0000 0000 0000 0000 0000 0000
00000030: 0000 0000 0000 0000 0000 0000 0000 0000
00000040: 0000 0000 0000 0000 0000 0000 0000 0000
00000050: 0000 0000 0000 0000 0000 0000 0000 0000
00000060: 0000 0000 0000 0000 0000 0000 0000 0000
00000070: 0000 0000 0000 0000 0000 0000 0000 0000
00000080: 0000 0000 0000 0000 0000 0000 0000 0000
00000090: 0000 0000 0000 0000 0000 0000 0000 0000
000000a0: 0000 0000 0000 0000 0000 0000 0000 0000
000000b0: 0000 0000 0000 0000 0000 0000 0000 0000
000000c0: 0000 0000 0000 0000 0000 0000 0000 0000
000000d0: 0000 0000 0000 0000 0000 0000 0000 0000
000000e0: 0000 0000 0000 0000 0000 0000 0000 0000
000000f0: 0000 0000 0000 0000 0000 0000 0000 0000
00000100: 0000 0000 0000 0000 0000 0000 0000 0000
00000110: 0000 0000 0000 0000 0000 0000 0000 0000
00000120: 0000 0000 0000 0000 0000 0000 0000 0000
00000130: 0000 0000 0000 0000 0000 0000 0000 0000
00000140: 0000 0000 0000 0000 0000 0000 0000 0000
00000150: 0000 0000 0000 0000 0000 0000 0000 0000
00000160: 0000 0000 0000 0000 0000 0000 0000 0000
00000170: 0000 0000 0000 0000 0000 0000 0000 0000
00000180: 0000 0000 0000 0000 0000 0000 0000 0000
00000190: 0000 0000 0000 0000 0000 0000 0000 0000
000001a0: 0000 0000 0000 0000 0000 0000 0000 0000
000001b0: 0000 0000 0000 0000 0000 0000 0000 0000
000001c0: 0000 0000 0000 0000 0000 0000 0000 0000
000001d0: 0000 0000 0000 0000 0000 0000 0000 0000
000001e0: 0000 0000 0000 0000 0000 0000 0000 0000
000001f0: 0000 0000 0000 0000 0000 0000 0000 0000

bn2.running_var f4 [128]
1.0 1.0 1.0 1.0 1.0 1.0 1.0 1.0
1.0 1.0 1.0 1.0 1.0 1.0 1.0 1.0
1.0 1.0 1.0 1.0 1.0 1.0 1.0 1.0
1.0 1.0 1.0 1.0 1.0 1.0 1.0 1.0
1.0 1.0 1.0 1.0 1.0 1.0 1.0 1.0
1.0 1.0 1.0 1.0 1.0 1.0 1.0 1.0
1.0 1.0 1.0 1.0 1.0 1.0 1.0 1.0
1.0 1.0 1.0 1.0 1.0 1.0 1.0 1.0
1.0 1.0 1.0 1.0 1.0 1.0 1.0 1.0
1.0 1.0 1.0 1.0 1.0 1.0 1.0 1.0
1.0 1.0 1.0 1.0 1.0 1.0 1.0 1.0
1.0 1.0 1.0 1.0 1.0 1.0 1.0 1.0
1.0 1.0 1.0 1.0 1.0 1.0 1.0 1.0
1.0 1.0 1.0 1.0 1.0 1.0 1.0 1.0
1.0 1.0 1.0 1.0 1.0 1.0 1.0 1.0
1.0 1.0 1.0 1.0 1.0 1.0 1.0 1.0
00000000: 0000 803f 0000 803f 0000 803f 0000 803f
00000010: 0000 803f 0000 803f 0000 803f 0000 803f
00000020: 0000 803f 0000 803f 0000 803f 0000 803f
00000030: 0000 803f 0000 803f 0000 803f 0000 803f
00000040: 0000 803f 0000 803f 0000 803f 0000 803f
00000050: 0000 803f 0000 803f 0000 803f 0000 803f
00000060: 0000 803f 0000 803f 0000 803f 0000 803f
00000070: 0000 803f 0000 803f 0000 803f 0000 803f
00000080: 0000 803f 0000 803f 0000 803f 0000 803f
00000090: 0000 803f 0000 803f 0000 803f 0000 803f
000000a0: 0000 803f 0000 803f 0000 803f 0000 803f
000000b0: 0000 803f 0000 803f 0000 803f 0000 803f
000000c0: 0000 803f 0000 803f 0000 803f 0000 803f
000000d0: 0000 803f 0000 803f 0000 803f 0000 803f
000000e0: 0000 803f 0000 803f 0000 803f 0000 803f
000000f0: 0000 803f 0000 803f 0000 803f 0000 803f
00000100: 0000 803f 0000 803f 0000 803f 0000 803f
00000110: 0000 803f 0000 803f 0000 803f 0000 803f
00000120: 0000 803f 0000 803f 0000 803f 0000 803f
00000130: 0000 803f 0000 803f 0000 803f 0000 803f
00000140: 0000 803f 0000 803f 0000 803f 0000 803f
00000150: 0000 803f 0000 803f 0000 803f 0000 803f
00000160: 0000 803f 0000 803f 0000 803f 0000 803f
00000170: 0000 803f 0000 803f 0000 803f 0000 803f
00000180: 0000 803f 0000 803f 0000 803f 0000 803f
00000190: 0000 803f 0000 803f 0000 803f 0000 803f
000001a0: 0000 803f 0000 803f 0000 803f 0000 803f
000001b0: 0000 803f 0000 803f 0000 803f 0000 803f
000001c0: 0000 803f 0000 803f 0000 803f 0000 803f
000001d0: 0000 803f 0000 803f 0000 803f 0000 803f
000001e0: 0000 803f 0000 803f 0000 803f 0000 803f
000001f0: 0000 803f 0000 803f 0000 803f 0000 803f
