check_point_actor.pth (torch_old, 91527 bytes, 14 tensors)

fc1.weight f4 [128, 33]
0	0xbefd67ac	-0.49493158
1	0xbf96c085	-1.1777502
2	0xbf931372	-1.1490309
3	0x3dc10308	0.09424406
4	0x3dd5b05f	0.10434031
5	0xbab034a6	-0.0013443425
6	0xbf488200	-0.78323364
7	0xbf60250b	-0.87556523
8	0xbe1a41d1	-0.1506417
9	0xbee643a3	-0.44973478
10	0x3cec6ce7	0.028860522
11	0xbf619717	-0.8812117
12	0x3f3e9643	0.7444803
13	0xbdeb0065	-0.114746846
14	0x3eeff5cb	0.46867213
15	0x3f9a15d0	1.2037907
16	0xbfcbeeef	-1.5932292
17	0xbea87b57	-0.329066
18	0xbe1645e8	-0.14675105
19	0xbf55d7fa	-0.8353268
20	0xbee4d6a7	-0.44695017
21	0x3e198ce0	0.14995146
22	0xbdbe9793	-0.09306254
23	0x3e85ac9f	0.26108262
24	0x3e458c84	0.19291884
25	0x3f505f24	0.81395173
26	0x3e9e32e7	0.3089821
27	0xbdd1ba55	-0.10240618
28	0xbf537905	-0.82606536
29	0x3d88a641	0.066723354
30	0x3ce6c4c1	0.028169991
31	0x3d9fb531	0.077982314
32	0x4089b21a	4.302991
33	0xbea2dbcc	-0.31808317
34	0x3f51e459	0.81989056
35	0xbf6fe06a	-0.93701804
36	0x3d242aa0	0.040079713
37	0xbdf74d42	-0.12075283
38	0x3f7c8df8	0.9865413
39	0x3ee20db1	0.4415107
40	0x3e7f4f4d	0.24932595
41	0x3f578d95	0.8420041
42	0x3f169a4b	0.5882918
43	0xbe3510de	-0.17682216
44	0xbc89e45e	-0.016832527
45	0xbf50609f	-0.8139743
46	0xbfb608a9	-1.4221393
47	0x3f83b230	1.0288754
48	0xbdfe91b0	-0.124301314
49	0xbf389fb7	-0.72118706
50	0xbf0a4d1c	-0.5402391
51	0xbf71e74a	-0.94493544
52	0x3e1b5379	0.15168561
53	0xbee61692	-0.44939095
54	0x3f47599d	0.77871114
55	0x3f77d396	0.9680723
56	0x3cefa2e9	0.029252486
57	0x3e869606	0.26286334
58	0xbf8e47a5	-1.1115614
59	0x3eba9399	0.36440733
60	0x3e57b464	0.21064907
61	0x3f2d7afa	0.6776577
62	0x3d70f3b6	0.05882617
63	0xbe9f887f	-0.31158826
64	0x3bcab9d0	0.0061867014
65	0xbfaf3683	-1.3688511
66	0x3f1bcdf7	0.6086115
67	0x3fb05f2a	1.3779042
68	0xbf15dfba	-0.58544505
69	0xbea0efbd	-0.31432906
70	0x3ef659a5	0.48115268
71	0x3c08e5b5	0.008355548
72	0x3e636e0d	0.2220995
73	0xbe139e58	-0.14415872
74	0xbdf01b92	-0.117240086
75	0x3e15e435	0.14637835
76	0x3eddac1f	0.4329538
77	0x3ed31e1e	0.41233915
78	0x3e020056	0.1269544
79	0xbef136db	-0.47112164
80	0x3ecc61d5	0.3991839
81	0x3e126dd9	0.14299716
82	0xbf67610c	-0.90382457
83	0xbf0b5df4	-0.54440236
84	0x3ec74902	0.38922888
85	0x3e1425a2	0.14467481
86	0xbe3908a3	-0.18069701
87	0xbf454fe9	-0.7707506
88	0xbf9ecf75	-1.2407061
89	0x3daea8e2	0.085283056
90	0x3e982c1f	0.29721162
91	0x3df9a7d2	0.12190212
92	0xbec720d0	-0.3889222
93	0x3fadf4df	1.3590354
94	0x3ddeb29a	0.10873909
95	0xbd4a21f4	-0.049348786
96	0xbfbf0015	-1.49219
97	0xbd788e5c	-0.06068264
98	0xbf992366	-1.1963928
99	0x3f0ef0f0	0.5583639
100	0xbe811b4f	-0.25216147
101	0xbf730ea1	-0.94944197
102	0xbec4314a	-0.38318855
103	0xbef420c1	-0.4768124
104	0x3ee539b6	0.44770592
105	0xbf4d3a47	-0.8016705
106	0xbfb78667	-1.4337891
107	0xbeb3c641	-0.35112193
108	0x3f3335ea	0.7000414
109	0x3f378f68	0.71703196
110	0xbf249446	-0.6428875
111	0x3f699980	0.9124985
112	0x3dce3b95	0.10069958
113	0x3fa3b607	1.2789925
114	0x3e66c300	0.22535324
115	0xbe23164d	-0.15926476
116	0x3e361a5d	0.17783494
117	0x3f069b20	0.5258045
118	0xbd1e44f1	-0.038639966
119	0xbf5cc15c	-0.86232543
120	0xbfcf6c9e	-1.6205022
121	0xbed89e2a	-0.4230817
122	0x3eb6020b	0.35548434
123	0x3f5a8817	0.85363907
124	0xbebe5763	-0.37176046
125	0xbea5c191	-0.32374242
126	0x3f02bdb3	0.5107071
127	0xbf30f7d9	-0.69128186
128	0xbcd9bdf0	-0.026579827
129	0xbf0107a8	-0.5040231
130	0xbd90a826	-0.07063322
131	0xbfe22865	-1.7668577
132	0xbe9a2469	-0.30105904
133	0x3f030655	0.51181537
134	0x4007abd4	2.1198626
135	0xbe0f5b65	-0.13999708
136	0xbf25de9d	-0.64792806
137	0xbf51043b	-0.8164708
138	0x3e8f5689	0.2799571
139	0x3e97036c	0.29494798
140	0x3e526b7f	0.20548819
141	0xbd45546e	-0.04817622
142	0x3e76f16f	0.24115537
143	0x3f36f637	0.71469444
144	0x3e14e2f1	0.14539696
145	0xbec45a6e	-0.38350242
146	0xbe759382	-0.23982051
147	0xbef9955e	-0.4874677
148	0xbd83b22d	-0.06430469
149	0x3e397e7a	0.18114653
150	0x3e8e1b15	0.27755037
151	0x3ec387eb	0.38189635
152	0xbf91fe64	-1.1405759
153	0x3ee23adf	0.4418554
154	0xbfce2702	-1.6105654
155	0xbf686970	-0.90785885
156	0xbf5296a0	-0.82261086
157	0xbf05db0d	-0.5228737
158	0x3ec4d146	0.38440913
159	0x3f3e2e16	0.7428907
160	0xbd14fe0b	-0.036375087
161	0xbce0a14e	-0.027420666
162	0xbf341070	-0.7033758
163	0xbd57a346	-0.052645944
164	0x3ffe3353	1.9859413
165	0x3f0e15ef	0.5550222
166	0xbfb29a2d	-1.3953301
167	0x3e2d3aaf	0.16916917
168	0xbe153824	-0.14572197
169	0x3f06846e	0.5254582
170	0xbf169773	-0.58824843
171	0x3dd3ba9d	0.10338328
172	0x3d02d65c	0.03194271
173	0x3de0c14e	0.1097437
174	0x3ea31cfd	0.31858054
175	0x3f52b6f6	0.82310426
176	0xbf2befa2	-0.67162526
177	0x3d3703f4	0.044681504
178	0xbf6931b3	-0.9109146
179	0x3f924ee8	1.143033
180	0x3f2edb9f	0.68303865
181	0xbe91678c	-0.28399312
182	0x3e9ccd81	0.30625537
183	0xbf70959b	-0.9397828
184	0xbf32cc47	-0.6984295
185	0xbdfd8f90	-0.12380898
186	0xbe995add	-0.29952136
187	0xbf308b34	-0.6896241
188	0x3ec987ae	0.39361328
189	0x3e84f346	0.25966853
190	0xbe4345b4	-0.19069558
191	0x3f5ae2b1	0.85502154
192	0x3c3c9f88	0.011512645
193	0xbf3c7e28	-0.7363
194	0xbcc9eae0	-0.02464813
195	0x3e0b21a9	0.13587059
196	0xbd5dcd6a	-0.054150976
197	0xc03b8149	-2.929766
198	0xbe53565d	-0.20638414
199	0x3f0e1e76	0.5551523
200	0xbe081219	-0.13288154
201	0x3d5f5ad9	0.05453
202	0xbf29d5a3	-0.6634161
203	0x3f0819e3	0.531645
204	0xbdabe269	-0.08392794
205	0x3f0e5cbb	0.55610245
206	0xbd38dea8	-0.045134217
207	0xbec57b6b	-0.38570723
208	0xbd6cde8d	-0.05782943
209	0x3f453d2a	0.77046454
210	0xbe6e3ea7	-0.23266087
211	0xbec0ad13	-0.37632045
212	0x3fcc85c3	1.5978321
213	0x3f2283c5	0.63482314
214	0xbf044f7e	-0.51683795
215	0xbf3fed84	-0.74971795
216	0x3e4f4f2c	0.20245045
217	0xbd7fb675	-0.062429864
218	0x3eafaa6b	0.34309706
219	0xbdd5fa52	-0.104481354
220	0xbd32c436	-0.043644153
221	0x3d525ed7	0.051359978
222	0x3e8e06c8	0.2773955
223	0x3f0efa53	0.55850714
224	0x3e859e92	0.26097542
225	0x3f9db55e	1.2320974
226	0xbf36fd64	-0.71480393
227	0xbc1e3b68	-0.009657718
228	0xbfa8cbc5	-1.3187186
229	0x3c65f760	0.01403603
230	0x3f87e0d3	1.0615486
231	0xbfb504ce	-1.4142091
232	0x3f1b177b	0.60582703
233	0x3ef75ba7	0.48312113
234	0x3ed18ed6	0.40929288
235	0xbf7d8d4b	-0.9904372
236	0xbe8b3b97	-0.271939
237	0xbec0de40	-0.37669563
238	0x3d1ff9d2	0.039056607
239	0x3f077fc8	0.52929354
240	0xbf5d307f	-0.86402124
241	0xbf422f79	-0.7585369
242	0x3f0ad2be	0.5422782
243	0x3f1c2563	0.6099455
244	0xbf18cb0b	-0.5968482
245	0x3f40259f	0.75057405
246	0xbdcab361	-0.09897495
247	0x3f388fef	0.72094625
248	0xbdb37b7b	-0.087637864
249	0xbf539a6d	-0.8265751
250	0xbe7c04f1	-0.2461126
251	0xbf1a1f68	-0.6020417
252	0x3eef35b0	0.46720648
253	0xbf2372ae	-0.6384686
254	0xbeab8be6	-0.33505172
255	0x3e5e1144	0.21686274

fc1.bias f4 [128]
0	0xbc8c753a	-0.017145742
1	0xbe19a06d	-0.15002604
2	0xbfc7c19d	-1.5605961
3	0xbf279e83	-0.65476245
4	0xbf264096	-0.649423
5	0x3e16cf23	0.14727454
6	0xbfabfbc5	-1.3436209
7	0xbf862335	-1.0479494
8	0xbfb1b3b9	-1.3882972
9	0x3dfa5383	0.1222296
10	0xbe55dde2	-0.20885423
11	0xbf7cc273	-0.98734206
12	0xbd5faabb	-0.05460618
13	0xbf9683e2	-1.1758997
14	0xbf5c0cb9	-0.85956913
15	0xbf0a7806	-0.5408939
16	0xbe6ce806	-0.23135385
17	0xbebd1d81	-0.36936572
18	0x3e9a0f1a	0.30089647
19	0x3e0a8966	0.13528976
20	0xbfa4a081	-1.2861482
21	0xbea44dbd	-0.3209056
22	0xbfb907f1	-1.4455549
23	0xbf028e2e	-0.509982
24	0x3e679d53	0.22618608
25	0xbce295c2	-0.0276593
26	0xbebe3e91	-0.3715711
27	0xbf128add	-0.5724314
28	0xbf0c9159	-0.5490928
29	0xbf1aaf73	-0.60423964
30	0xbf175a27	-0.59121937
31	0xbf1bba19	-0.6083084
32	0xbf01f533	-0.5076477
33	0xbf4ffa82	-0.8124162
34	0xbe251729	-0.16122116
35	0xbf86ccee	-1.053129
36	0xbfc9dd99	-1.5770751
37	0xbd0cb73d	-0.034354437
38	0xbeb63c2e	-0.35592788
39	0xbf982b11	-1.1888143
40	0xbf97a35e	-1.1846731
41	0xbf9dd8cf	-1.233179
42	0xbfa3b84c	-1.2790618
43	0xbe8adf66	-0.27123564
44	0xbef33b32	-0.475061
45	0x3de60c9e	0.11232875
46	0xbbd8220a	-0.0065958546
47	0xbfbe18f0	-1.485136
48	0xbf156a88	-0.5836568
49	0xbecd89f5	-0.40144315
50	0xbf6bae6c	-0.9206302
51	0xbecb1d3f	-0.3967075
52	0xbe75a1a9	-0.2398745
53	0xbf770f37	-0.9650759
54	0xbdd86c28	-0.10567504
55	0xbfda74d1	-1.70669
56	0xbdeda0b1	-0.11602915
57	0xbf85df76	-1.045882
58	0xbe5e7256	-0.21723303
59	0xbfbde495	-1.4835383
60	0xbf675ee8	-0.9037919
61	0xbf1bfdde	-0.60934246
62	0xbf6ad550	-0.9173174
63	0xbf73c0ad	-0.95215875
64	0xbf198c10	-0.59979343
65	0xbf3a2c01	-0.72723395
66	0xbf8f5e6e	-1.1200693
67	0xbeaea42a	-0.34109622
68	0xbf93fbbb	-1.1561197
69	0xbe061256	-0.13092932
70	0x3e1edf1a	0.15514794
71	0x3d3b6aab	0.045756023
72	0xbe109f02	-0.14123157
73	0xbf342b64	-0.7037871
74	0x3e9f1ba8	0.31075788
75	0xbe30bd84	-0.17259794
76	0xbe9497d4	-0.29022086
77	0x3e03c3a8	0.12867606
78	0xbe7c4a3a	-0.2463769
79	0xbed1dfa3	-0.40990934
80	0xbf20031d	-0.6250475
81	0xbfbbd07e	-1.4673002
82	0xbf0fcd0d	-0.5617226
83	0xbe43d3b4	-0.19123727
84	0xbed36e64	-0.4129516
85	0xbf1cd412	-0.61261094
86	0xbf018872	-0.50598824
87	0xbfbba61b	-1.4660066
88	0xbf8b203b	-1.0869211
89	0xbec15a4f	-0.37764212
90	0xbef80e8f	-0.48448607
91	0xbf6b0246	-0.91800344
92	0xbf0b9e1b	-0.54538125
93	0xbe24c9f8	-0.1609267
94	0xbf7eff26	-0.99608076
95	0xbf288a34	-0.6583588
96	0x3e8562cb	0.26051936
97	0xbfb747e1	-1.4318811
98	0xbfb6b499	-1.4273864
99	0xbe1d172d	-0.15340872
100	0xbf5df31a	-0.8669907
101	0xbf815da2	-1.01067
102	0xbf967e61	-1.1757318
103	0xbf6c391a	-0.9227463
104	0xbecf814d	-0.40528336
105	0xbfab8a27	-1.3401536
106	0xbfb4364c	-1.407907
107	0xbf515e3a	-0.81784403
108	0xbeff12c1	-0.49818996
109	0x3e0a580f	0.13510154
110	0xbfa53b53	-1.2908729
111	0xbf90f6f2	-1.1325362
112	0xbf9f9464	-1.246716
113	0x3c602aed	0.013682109
114	0xbf6f0339	-0.9336429
115	0xbf501dd8	-0.8129554
116	0xbf4ed29e	-0.80790126
117	0x3dd9af62	0.10629155
118	0xbf753b54	-0.9579365
119	0xbfa5485c	-1.2912707
120	0xbf3625fa	-0.711517
121	0x3e226fc0	0.15862942
122	0xbf7bce77	-0.98361915
123	0xbf36657e	-0.71248615
124	0xbe7d8c9e	-0.24760672
125	0xbf16cba6	-0.5890449
126	0xbebbdd05	-0.36692062
127	0x3e4bf8e0	0.19919157

fc2.weight f4 [128, 128]
0	0x3cf3dffe	0.029769894
1	0x3db92fa0	0.09042287
2	0xbc4aa13e	-0.012367545
3	0xbee88f3a	-0.45421773
4	0x3db7b178	0.08969396
5	0xbda378ba	-0.07982011
6	0x3f19dbaa	0.60100806
7	0xbe4207cc	-0.18948287
8	0xbecacf63	-0.39611349
9	0xbdf19e1e	-0.117977366
10	0x3f08b49b	0.5340058
11	0xbd05f22f	-0.032701667
12	0xbe8c2988	-0.27375436
13	0x3e0dfc7b	0.13865845
14	0x3d531af4	0.051539376
15	0xbf038597	-0.51375717
16	0x3deb6173	0.11493196
17	0xbeb627b0	-0.35577154
18	0xbe539225	-0.20661218
19	0xbf01037d	-0.5039595
20	0xbee6c119	-0.45069197
21	0x3e84a1f7	0.2590482
22	0xbeb8cbcf	-0.36092994
23	0xbf12b385	-0.57305175
24	0xbe86141d	-0.2618722
25	0xbed99907	-0.42499563
26	0xbe454dd6	-0.19267973
27	0xbd46d888	-0.048546344
28	0xbe88770e	-0.26653332
29	0x3e2615d2	0.16219261
30	0xbf0be001	-0.5463868
31	0xbeb46d5e	-0.3523969
32	0x3e9dd387	0.30825445
33	0x3dac0bd0	0.084006906
34	0xbe1ed2dd	-0.15510125
35	0xbe8530b2	-0.26013714
36	0xbe0e9cad	-0.13926955
37	0xbf0d7f5f	-0.5527248
38	0xbebe1d9f	-0.37131974
39	0x3e29bd3b	0.16576092
40	0xbdaa4957	-0.0831477
41	0xbec66dc9	-0.38755634
42	0x3eb3dd4d	0.35129777
43	0xbebfa81e	-0.3743295
44	0x3e78761d	0.24263807
45	0xbe0ca655	-0.13735326
46	0xbee4cd8a	-0.44688064
47	0xbe186488	-0.148821
48	0xbec584d5	-0.38577905
49	0xbe9a86eb	-0.3018106
50	0xbe885b36	-0.26632088
51	0xbe44b6d1	-0.19210364
52	0xbedab1bd	-0.4271373
53	0x3e99bd46	0.30027217
54	0x3d359c62	0.04433859
55	0xbb4cfe52	-0.0031279516
56	0xbea78843	-0.32721147
57	0xbd7673cf	-0.060169037
58	0xbefbfe14	-0.49217284
59	0x3e003caf	0.12523149
60	0xbe23c9b7	-0.15994917
61	0xbf09a94b	-0.53773946
62	0xbda3c6cb	-0.07996901
63	0xbdcc5e5b	-0.099789344
64	0xbf0f7094	-0.56031156
65	0xbe26c580	-0.16286278
66	0xbf0a8c0a	-0.5411993
67	0xbe7bb49d	-0.24580617
68	0xbebd5905	-0.3698198
69	0x3e35e13f	0.17761706
70	0xbf144899	-0.57923275
71	0xbf02f167	-0.511496
72	0x3d030b44	0.031993166
73	0x3da145a7	0.07874613
74	0xbe94e64b	-0.2908195
75	0x3de05867	0.109543614
76	0xbe464c5a	-0.19365063
77	0xbd91af68	-0.07113534
78	0xbdf4ed60	-0.11959338
79	0xbbad51c1	-0.005289287
80	0xbe53f45c	-0.20698684
81	0xbdd7b88c	-0.105332464
82	0xbec50908	-0.38483453
83	0x3c9aa892	0.018879209
84	0xbf10f0d4	-0.56617475
85	0x3e20831c	0.15675014
86	0xbd99e87f	-0.07515048
87	0xbdc9810d	-0.098390676
88	0xbe85ee7e	-0.26158518
89	0xbf29826d	-0.6621464
90	0xbe2062c7	-0.1566268
91	0xbdfc875d	-0.12330506
92	0xbdf98c83	-0.121850036
93	0x3e05c830	0.13064647
94	0xbec9f80d	-0.3944706
95	0xbf0b7fd2	-0.54491913
96	0xbdfd0393	-0.12354197
97	0x3ebd18f0	0.36933088
98	0xbf015113	-0.50514334
99	0x3dabc38f	0.08386909
100	0x3d9b5ce6	0.07586078
101	0x3c42c67f	0.0118881455
102	0x3ef672d0	0.4813447
103	0xbed5b544	-0.41739857
104	0xbefa733a	-0.48916036
105	0x3e74961d	0.23885389
106	0x3e68e844	0.22744852
107	0xbef9aeb3	-0.48766097
108	0xbf1b82db	-0.60746545
109	0xbefe7158	-0.4969585
110	0xbeeca7d3	-0.4622179
111	0x3d33e116	0.04391583
112	0xbf0ca654	-0.54941297
113	0x3de34179	0.11096472
114	0xbf15712d	-0.5837582
115	0xbcf87558	-0.030329391
116	0xbecc55e6	-0.39909285
117	0xbdccdc26	-0.100029275
118	0xbd9844ff	-0.07435035
119	0x3e0006b7	0.12502562
120	0xbe5a6314	-0.21326858
121	0xbe2beefc	-0.16790384
122	0xbec7811f	-0.389657
123	0x3ea2f6e3	0.31828985
124	0xbeecfa7e	-0.4628486
125	0xbecb676f	-0.3972735
126	0x3e051fe1	0.13000442
127	0xbf3001e5	-0.6875289
128	0xbe8f7e46	-0.28026026
129	0xbe55dc99	-0.20884933
130	0xbf47bcf7	-0.7802271
131	0x3f4f6eae	0.8102826
132	0xbe770e06	-0.24126443
133	0x3f8687e2	1.0510218
134	0xbcbf0090	-0.023315698
135	0xbe1186db	-0.142116
136	0xbed0c627	-0.40776178
137	0x3f65520a	0.89578307
138	0xbf713e2e	-0.94235504
139	0xbed5795f	-0.4169416
140	0x3f11c517	0.5694136
141	0xbf0843e3	-0.53228587
142	0xbe5c7dc2	-0.21532348
143	0xbea201f5	-0.31642118
144	0x3e23e691	0.16005923
145	0xbfb5402c	-1.4160209
146	0xbf465967	-0.7748017
147	0x3fbccaea	1.4749424
148	0xbf146ce9	-0.57978684
149	0xbf917070	-1.1362438
150	0x3ea44ce6	0.3208992
151	0x3f135a30	0.5755949
152	0x3ea54266	0.3227722
153	0x3e3eb361	0.18623115
154	0xbf1276f0	-0.57212734
155	0x3f5876d3	0.8455631
156	0xbf6a9e29	-0.91647583
157	0x3e6419eb	0.22275512
158	0xbf8d1c51	-1.1024266
159	0xbf2aadcc	-0.66671443
160	0x3e9c8f92	0.30578285
161	0xbfad6b01	-1.354828
162	0xbf167428	-0.5877099
163	0xbf7b2cbd	-0.9811514
164	0xbe1f6270	-0.15564895
165	0x3f6c1d93	0.92232627
166	0xbe492028	-0.19641173
167	0xbdafc52c	-0.085825294
168	0xbe39683e	-0.18106171
169	0x3d9cd5f1	0.076579936
170	0x3f5459f5	0.82949764
171	0x3f7e401b	0.9931657
172	0xbf3d2586	-0.7388538
173	0xbf03ccde	-0.5148448
174	0xbf66145e	-0.8987483
175	0xbf3f423f	-0.7471046
176	0xbfb05c16	-1.3778102
177	0xbfa15b2b	-1.2605947
178	0xbf2b050c	-0.66804576
179	0xbec763e8	-0.3894341
180	0xbf3f0321	-0.7461415
181	0x3e03cb8a	0.12870613
182	0x3e88328e	0.2660107
183	0x3e89fb94	0.2694975
184	0xbf170729	-0.589953
185	0x3e4f6cb4	0.2025631
186	0xbeb576fa	-0.35442334
187	0x3f006f1a	0.5016953
188	0x3d65fea4	0.056151047
189	0xbf6605be	-0.8985251
190	0xbea7e493	-0.32791576
191	0x3efc19e9	0.49238518
192	0x3e1c5590	0.15267015
193	0xbaca8322	-0.0015450458
194	0xbf851876	-1.039809
195	0xbe310de0	-0.17290449
196	0x3dbe691f	0.09297394
197	0xc01f2a10	-2.4869423
198	0xbecaeee8	-0.39635396
199	0x3e0f62cf	0.14002536
200	0xc004d58d	-2.075534
201	0xbd98fbe5	-0.0746992
202	0x3faa37a9	1.3298236
203	0xbf94dfb4	-1.1630769
204	0xbf063627	-0.5242638
205	0xbf807c03	-1.0037845
206	0x3e82fc3b	0.25583062
207	0xbf7c5281	-0.9856339
208	0xbf2360e0	-0.63819695
209	0xbeef5e88	-0.4675181
210	0x3f96be58	1.1776838
211	0x3ed4e197	0.4157836
212	0xbf85151c	-1.0397067
213	0xbf4417f8	-0.76599073
214	0xbe8795ea	-0.26481563
215	0xbe63a835	-0.22232135
216	0xbe42cf65	-0.19024427
217	0xbce8842d	-0.028383339
218	0xbf94302f	-1.1577204
219	0x3ead9fa0	0.33910847
220	0x3df6bd0b	0.12047776
221	0xc00cd4e8	-2.2004948
222	0xbfc3e291	-1.5303518
223	0xbf614d10	-0.88008213
224	0xbf6c793c	-0.9237249
225	0xbe24bf84	-0.16088682
226	0xbfe09224	-1.7544599
227	0x3d8651d4	0.06558576
228	0x3e35ba6b	0.17746894
229	0x3f0259aa	0.50918067
230	0xbe87b26a	-0.26503307
231	0x3f4c83df	0.7988872
232	0xbff252fb	-1.8931574
233	0xbf4f1f62	-0.8090726
234	0xbf00c752	-0.5030414
235	0xbc9e5ee6	-0.01933236
236	0x3dd539c3	0.10411408
237	0xbe83abf5	-0.2571713
238	0xbf8d8df0	-1.1058941
239	0x3ddcf111	0.10788167
240	0x3eab9321	0.33510688
241	0x3f06a412	0.525941
242	0xbf33d3aa	-0.7024485
243	0xbfdea8a1	-1.7395211
244	0xbf519879	-0.8187328
245	0xbf0ab833	-0.54187316
246	0x3ee3647e	0.44412607
247	0xbfa2488e	-1.2678392
248	0xbf905eec	-1.1278968
249	0x3f8db46d	1.1070687
250	0xbf5803c7	-0.84380764
251	0xbbf14b52	-0.007363715
252	0x3d386be7	0.04502478
253	0xbf104541	-0.56355673
254	0xbdf98b2f	-0.1218475
255	0x3e8260a9	0.2546437

fc2.bias f4 [128]
0	0xbedde272	-0.43336827
1	0x3e82c7cb	0.25543055
2	0x3e7976b1	0.24361683
3	0xbcd9bfb8	-0.026580676
4	0x3d88a2c4	0.0667167
5	0xbeaa8d66	-0.33311003
6	0xbe6de309	-0.23231138
7	0x3db15dc6	0.08660464
8	0xbe877ec0	-0.2646389
9	0x3e28fcc4	0.16502672
10	0x3f341355	0.70342
11	0xbf6f4e42	-0.93478787
12	0xbf20461e	-0.6260699
13	0xbe4fd1da	-0.20294896
14	0xbee29a4e	-0.4425835
15	0x3ef15a92	0.47139412
16	0xbf4fa8f5	-0.8111718
17	0xbe51e3c3	-0.2049704
18	0xbeed6cf0	-0.46372175
19	0xbf098682	-0.5372087
20	0xbc04586f	-0.008077725
21	0xbd541506	-0.051777862
22	0xbeb24776	-0.34820145
23	0xbdfef785	-0.12449554
24	0x3f145a61	0.5795041
25	0x3f516fed	0.8181141
26	0xbd4f7948	-0.050652772
27	0xbf0a32dc	-0.53983855
28	0x3f2707f5	0.65246516
29	0x3bc7cf91	0.006097742
30	0xbf070ef9	-0.5275722
31	0xbe53a5bf	-0.20668696
32	0xbe78532c	-0.24250478
33	0xbe9ce0ae	-0.30640167
34	0xbe4399b1	-0.19101597
35	0xbd957fe5	-0.072997846
36	0xbd5d535d	-0.05403458
37	0xbf4e6162	-0.80617344
38	0xbe81bc2c	-0.25338876
39	0xbf0f0c38	-0.5587802
40	0xbe043b14	-0.12913162
41	0xbf2878e3	-0.6580946
42	0xbf6c0206	-0.9219059
43	0xbeef6d44	-0.4676305
44	0x3e423103	0.18964009
45	0xbdbedb7e	-0.093192086
46	0xbdb010fe	-0.08596991
47	0xbe3bbccf	-0.18333744
48	0xbf72a802	-0.9478761
49	0x3f84bc50	1.0369968
50	0xbe990e70	-0.29893827
51	0x3d977209	0.07394797
52	0xbd175417	-0.03694543
53	0xbf21b3ae	-0.63164794
54	0xbf47d425	-0.7805808
55	0xbee15d02	-0.44016272
56	0xbe7c7a26	-0.24655971
57	0xbdf20d54	-0.118189484
58	0x3ef2ea81	0.47444537
59	0xbe87f86e	-0.26556724
60	0xbccafcc2	-0.024778727
61	0xbe6480e3	-0.22314791
62	0xbda2bd0a	-0.079462126
63	0x3e0312d3	0.1280015
64	0xbe2e7e17	-0.17040287
65	0xbed6fe8b	-0.41991076
66	0xbcc8ea5f	-0.02452582
67	0xbd32c74e	-0.043647103
68	0xbf530fec	-0.8244617
69	0xbf736157	-0.95070404
70	0x3d470caa	0.04859606
71	0xbec19b62	-0.3781386
72	0xbe13308d	-0.1437399
73	0x3e7edff9	0.24890126
74	0xbedfea78	-0.43733573
75	0xbe061843	-0.13095193
76	0xbe63092a	-0.22171465
77	0xbf5c1771	-0.8597327
78	0xbe73318b	-0.23749368
79	0xbf04eb8e	-0.5192193
80	0xbe957374	-0.29189646
81	0xbf5112eb	-0.8166949
82	0xbb285d1f	-0.002569027
83	0xbf35f74f	-0.7108049
84	0xbe83cdee	-0.2574305
85	0x3e815003	0.25256357
86	0xbe6f6bf4	-0.23381025
87	0xbef5b62d	-0.47990552
88	0x3e5302f9	0.20606603
89	0x3d3fce09	0.04682735
90	0x3b7b4bd1	0.003834475
91	0xbf687b4f	-0.90813154
92	0x3b967eae	0.004592738
93	0xbed704a9	-0.41995743
94	0xbe8503e3	-0.25979528
95	0xbe30d860	-0.1727004
96	0xbf1264c2	-0.57184994
97	0xbe0664cb	-0.13124387
98	0x3f1af4a0	0.6052952
99	0xbcbf0d3f	-0.023321746
100	0xbef718ce	-0.48261112
101	0xbd9c12e2	-0.07620789
102	0xbddb8dc8	-0.10720402
103	0xbf45dfd7	-0.7729468
104	0xbdc30213	-0.0952188
105	0x3f204455	0.62604266
106	0x3e3db444	0.18525797
107	0xbf0a3fbe	-0.5400351
108	0xbf3865fb	-0.7203061
109	0xbe8eb94d	-0.27875748
110	0x3ea7fd91	0.32810643
111	0x3de3afa4	0.11117485
112	0x3dd3fbba	0.103507474
113	0xbe6f4ea3	-0.23369841
114	0xbed8a4c7	-0.42313215
115	0xbf3ee9f6	-0.74575746
116	0xbeb10538	-0.34574294
117	0x3f57836d	0.84184915
118	0xbe1dfcc6	-0.15428457
119	0xbea09b9e	-0.31368726
120	0x3d9decfd	0.077112176
121	0xbf287409	-0.65802056
122	0xbf128bf4	-0.572448
123	0xbd21917a	-0.039445378
124	0xbe3d0f95	-0.18462975
125	0x3d81321c	0.06308386
126	0x3bf8ef8c	0.0075969156
127	0xbf36348f	-0.7117395

fc3.weight f4 [4, 128]
0	0x3e462f83	0.19354062
1	0xbf10ebf6	-0.5661005
2	0xbecb201b	-0.39672932
3	0x3f892ee0	1.071743
4	0xc0124e42	-2.2860265
5	0xbf6ae04f	-0.9174852
6	0xbd8cb3c2	-0.068702236
7	0x3ff0cfb4	1.8813386
8	0x3f0653ed	0.5247181
9	0xbf97131c	-1.1802707
10	0x3f60567f	0.8763198
11	0x3e5c9ea9	0.21544899
12	0xbf0e1d5a	-0.55513537
13	0xbfb1fa87	-1.390458
14	0x3ee1bcc1	0.4408932
15	0xbeb3534b	-0.35024485
16	0xbf80d031	-1.0063535
17	0x40003c11	2.0036662
18	0xbf0abf43	-0.5419809
19	0x3f7ef8ef	0.9959859
20	0xbd6652c2	-0.056231268
21	0xbce078c2	-0.027401332
22	0xbedc4eeb	-0.4302896
23	0xbf90e041	-1.1318437
24	0xbf271e1f	-0.65280336
25	0xbfd718f9	-1.6804496
26	0xbd18bccb	-0.037289422
27	0x3f9f1e90	1.2431202
28	0x3f568052	0.8378955
29	0xbdfeed9d	-0.12447665
30	0xbc20cee8	-0.009814955
31	0x3f14b36e	0.5808629
32	0x3fa6b918	1.3025236
33	0xbff5feab	-1.9218343
34	0x3f4f8ca3	0.8107397
35	0x3ce8c75d	0.028415376
36	0x3d1121de	0.03543269
37	0xbdda9bd5	-0.10674254
38	0x3d0b13ad	0.03395431
39	0xbfc4d348	-1.5376978
40	0xbe8a1e24	-0.2697612
41	0xbef3c50f	-0.4761128
42	0x3a6338b9	0.0008667815
43	0x3bdd6d54	0.0067574177
44	0x3f5d9e87	0.8657002
45	0xbd5c18ac	-0.053734466
46	0xbdb327a9	-0.08747799
47	0x3f68a084	0.9086993
48	0xbe1f67dd	-0.15566964
49	0xbeb8529f	-0.36000535
50	0xbfb25302	-1.3931582
51	0xbea13ef4	-0.31493342
52	0x3d3ade6b	0.04562227
53	0x3f3ae68a	0.73008025
54	0xbee6078e	-0.4492764
55	0xbe38bb8a	-0.1804029
56	0xbf8adaa0	-1.0847969
57	0xbee91cd4	-0.45529807
58	0x3f9fb36a	1.2476628
59	0x3ed31685	0.4122812
60	0xbefa6add	-0.48909655
61	0x3e566d5f	0.2094016
62	0x3f6f7f8c	0.93553996
63	0x3e606c93	0.21916418
64	0x3c40a830	0.011758849
65	0x3f2904da	0.6602303
66	0xbf6f0635	-0.93368846
67	0xbf4d3fa9	-0.8017526
68	0x40093f6d	2.1444962
69	0xbf95184a	-1.1648037
70	0xbff9ebb4	-1.9525056
71	0x3fcd75f6	1.6051624
72	0x3dbd38f2	0.09239377
73	0x3ed8138a	0.42202407
74	0xbf341096	-0.7033781
75	0xbf7e11cc	-0.99245906
76	0xbfa04042	-1.251961
77	0xbeefcee3	-0.4683753
78	0xbd879be6	-0.06621532
79	0x3f342774	0.703727
80	0xbea69898	-0.32538295
81	0xbf2a4f89	-0.6652761
82	0xbcd99263	-0.02655906
83	0x3e96f6e1	0.2948523
84	0xbee12eaf	-0.4398093
85	0x3f02851a	0.50984347
86	0x3f1d5798	0.6146178
87	0x3e92afd1	0.28649762
88	0xbd8e85e8	-0.06959134
89	0x3f2ae389	0.6675344
90	0xbcec9b2c	-0.028882585
91	0xbe538f86	-0.20660219
92	0x3e413e28	0.18871367
93	0xbf904228	-1.1270189
94	0x40028939	2.0396254
95	0xbe07031c	-0.1318478
96	0x3e9f4b45	0.31112114
97	0xbde51bdb	-0.11186954
98	0xbde55ea0	-0.11199689
99	0x3e2eeb36	0.17081913
100	0xbe382a7f	-0.17984961
101	0x3d000ebd	0.031264056
102	0xbee0144f	-0.43765494
103	0xbf50e0dc	-0.8159311
104	0xbc7f7ad0	-0.015593246
105	0x3edf2e9b	0.43590245
106	0xc0135f16	-2.3026786
107	0x3f2361eb	0.63821286
108	0x3e0070f3	0.12543087
109	0x3c9bca04	0.019017227
110	0x3f761ae0	0.9613476
111	0x3edbe38a	0.42947036
112	0xbdd7395a	-0.10508986
113	0xbcbde463	-0.023180192
114	0xbe7cab1b	-0.24674647
115	0xbf439406	-0.7639774
116	0xbd3ee16d	-0.0466017
117	0xbfe24f47	-1.7680444
118	0xbe02c0c2	-0.12768844
119	0xbdd54b76	-0.10414784
120	0xbe82f850	-0.25580072
121	0x3f344c59	0.70429
122	0x401aee64	2.4208002
123	0xbbcfc91e	-0.0063411137
124	0xbddefc78	-0.10887998
125	0x3ebefdf5	0.3730313
126	0xbed4fb6c	-0.4159807
127	0x3e90169f	0.2814226
128	0xbdf08132	-0.11743392
129	0xbeb0d9db	-0.3454121
130	0xbf59c70e	-0.8506936
131	0x3e9b437e	0.3032493
132	0xbe3cf614	-0.18453246
133	0xbe235c89	-0.15953268
134	0xbd6d64a9	-0.057957325
135	0xbc569cf2	-0.013098942
136	0xbf47e136	-0.7807802
137	0xbf1e8f3c	-0.6193731
138	0x3df18eec	0.11794838
139	0xbe526645	-0.20546825
140	0xbf1df593	-0.6170284
141	0xbf18f572	-0.5974952
142	0x3d1a800c	0.03771977
143	0x3eabb2ef	0.33534953
144	0x3fb5583e	1.4167554
145	0xbf017029	-0.5056177
146	0x3d14d606	0.03633692
147	0xbd0f8399	-0.03503761
148	0xbd8271bf	-0.063693516
149	0xbd9c2233	-0.076237105
150	0xbe1e460a	-0.15456405
151	0xbf685a8c	-0.90763164
152	0x3e9cb670	0.3060794
153	0x3f2b03df	0.6680278
154	0xbd6a9fab	-0.057281177
155	0x3e026d6e	0.12737057
156	0xbf653f15	-0.8954938
157	0xbdf14a24	-0.11781719
158	0xc024586b	-2.5678966
159	0xbf3f9afe	-0.74845874
160	0x3f0461e6	0.5171188
161	0x3f75dfc3	0.9604456
162	0xbeefea47	-0.46858427
163	0xbe0a32bb	-0.13495915
164	0xbdb539fa	-0.08848949
165	0x3f0d944d	0.55304414
166	0xbde8d790	-0.1136924
167	0x3f317ef5	0.69334346
168	0xbdb7f5c7	-0.08982425
169	0xbe5d471a	-0.21609154
170	0xbdff7b99	-0.12474746
171	0x3f1d4f55	0.61449176
172	0x3daf572b	0.08561548
173	0xbd9e10f1	-0.07718075
174	0xbd2b07a5	-0.041755337
175	0x3f9b3e3a	1.2128365
176	0x3f1731d3	0.590604
177	0xbda9fc67	-0.08300095
178	0xbfbcc6cd	-1.4748169
179	0xbeae7c9a	-0.34079438
180	0x3d28eaa7	0.041239407
181	0xbf357b45	-0.7089122
182	0xbdb4e56d	-0.08832822
183	0xbd5d8ddd	-0.05409037
184	0xbf74e8ba	-0.9566761
185	0xbe8c6d42	-0.27427107
186	0xbebd3ae9	-0.36959007
187	0x3fa20839	1.2658759
188	0xbf6fe173	-0.93703383
189	0x40038b8e	2.0553927
190	0x3f354df0	0.7082205
191	0xbe4e6c9a	-0.20158616
192	0xba9691f6	-0.0011487592
193	0x3f25325c	0.6452997
194	0x3f7aca9b	0.979654
195	0xbf3f186b	-0.74646634
196	0xbf0a4393	-0.5400936
197	0xbf3b71bb	-0.73220414
198	0xbe5d1fc4	-0.21594149
199	0xbf7c4ae7	-0.9855179
200	0xbca80f1a	-0.020515013
201	0xbf0c1dbe	-0.5473288
202	0x3e7ac2b6	0.24488339
203	0x3f2e2503	0.68025225
204	0xbf968f65	-1.176251
205	0x3c9aa7b8	0.018878803
206	0x3e03f4b4	0.12886316
207	0xbca87caf	-0.020567266
208	0xbe6db11e	-0.23212096
209	0xbf42346d	-0.75861245
210	0xbd2e01e5	-0.042482276
211	0x3dee26e0	0.116285086
212	0xbe93e840	-0.2888813
213	0x3f04e5a2	0.5191289
214	0xbef13ae8	-0.47115254
215	0x3e0ad4f9	0.13557805
216	0x3f917d9d	1.1366459
217	0xbe5e5627	-0.21712552
218	0xbd1d72f2	-0.0384397
219	0xbe6a2dde	-0.2286906
220	0xbd30dbc6	-0.043178342
221	0xbfc0c464	-1.5059934
222	0x3f795ae8	0.97404337
223	0x3f73b99f	0.9520511
224	0xbecd0978	-0.40046287
225	0xbea85876	-0.3287999
226	0xbba144ff	-0.004921555
227	0x3e5f32ef	0.21796773
228	0x3db45838	0.08805889
229	0xbd66a941	-0.056313757
230	0x3fc941d5	1.5723215
231	0xbf3a38f4	-0.72743154
232	0xbb3caab2	-0.0028788266
233	0xbe7bfbd5	-0.24607785
234	0xbdba66b6	-0.09101622
235	0x3f82ba7d	1.0213162
236	0x3e093682	0.133997
237	0xbe581f84	-0.21105772
238	0x3fd9edf3	1.7025741
239	0x3ffa29e9	1.954404
240	0x3fd6c96b	1.6780218
241	0xbdd79ab7	-0.105275564
242	0xbf143fd1	-0.57909876
243	0x3f45888b	0.77161473
244	0x3f011e1c	0.5043657
245	0xbd73f5ae	-0.05956047
246	0xbe320065	-0.17382963
247	0xbf9c7a2e	-1.2224786
248	0x3f139d6a	0.5766207
249	0xbf31b5c4	-0.6941798
250	0x3dfaa1c6	0.12237887
251	0xbd272012	-0.04080207
252	0xbf8bced7	-1.0922498
253	0x3f742355	0.9536641
254	0xbf5cc372	-0.86235726
255	0x3eb7fdcd	0.35935822

fc3.bias f4 [4]
0	0xbe85df0c	-0.26146734
1	0x3f6fc096	0.9365324
2	0xbea4f2c8	-0.32216477
3	0x3e286314	0.16444045

bn1.weight f4 [128]
0	0x3f46eb1a	0.77702487
1	0x3f7fdb3b	0.99943894
2	0x3e5d8288	0.21631825
3	0x3f7398df	0.9515514
4	0x3f5ec93f	0.8702583
5	0x3f468e90	0.77561283
6	0x3ded60a0	0.115906954
7	0x3f123831	0.5711699
8	0x3ecf41ac	0.4047979
9	0x3de9a6d8	0.11408776
10	0x3f3b7cc0	0.7323723
11	0x3f55a7da	0.83459246
12	0x3ea48aa6	0.3213703
13	0x3ebb4002	0.36572272
14	0x3f26b5ab	0.65120953
15	0x3bd44000	0.006477356
16	0x3f3a4dd9	0.72775036
17	0x3f38e244	0.72220254
18	0x3e8fa280	0.28053665
19	0x3f1c759d	0.61116964
20	0x3ee755ae	0.45182556
21	0x3f3ce768	0.737906
22	0x3f383636	0.7195772
23	0x3f669d29	0.9008356
24	0x3f64111b	0.890886
25	0x3c30c8c0	0.01079005
26	0x3d9564c8	0.07294613
27	0x3f61a353	0.8813984
28	0x3f335a6e	0.7005986
29	0x3f6e59d9	0.93105847
30	0x3f55d840	0.83533096
31	0x3f381c46	0.7191814
32	0x3e00c164	0.12573773
33	0x3eb3b862	0.3510161
34	0x3f4f6e81	0.8102799
35	0x3f2867fe	0.6578368
36	0x3ebd84c2	0.3701535
37	0x3eef9bc6	0.46798533
38	0x3f2779c8	0.654202
39	0x3f7ec96d	0.995261
40	0x3e88eb5a	0.2674206
41	0x3f45cb94	0.7726376
42	0x3edf6e00	0.4363861
43	0x3d776c40	0.06040597
44	0x3f535754	0.8255513
45	0x3e27a21c	0.16370434
46	0x3d246cb0	0.040142715
47	0x3f5e9d6a	0.86958945
48	0x3e4e9654	0.20174533
49	0x3f16fadb	0.58976525
50	0x3f0361c1	0.51321036
51	0x3eb4f120	0.35340214
52	0x3e6ca0c0	0.23108196
53	0x3e8b3090	0.27185488
54	0x3e357678	0.17720973
55	0x3f5516c2	0.8323785
56	0x3f7273c4	0.94707894
57	0x3e8a6dbe	0.27036852
58	0x3f59cef0	0.85081387
59	0x3f14b89a	0.5809418
60	0x3f44fd0d	0.76948625
61	0x3f7032b6	0.9382738
62	0x3f445779	0.7669597
63	0x3f73fa4c	0.953038
64	0x3ed4ea78	0.41585135
65	0x3f08f1fc	0.5349424
66	0x3e6a1fb8	0.22863662
67	0x3f00592c	0.50136065
68	0x3e51e134	0.20496064
69	0x3cfdb6e0	0.03097099
70	0x3e1a1d98	0.15050352
71	0x3f1e4201	0.61819464
72	0x3cad1740	0.02112925
73	0x3d00da70	0.03145832
74	0x3e0c05b8	0.13674057
75	0x3e24fe7c	0.16112703
76	0x3e45ea28	0.19327605
77	0x3f3c17ee	0.73474014
78	0x3da46d80	0.08028698
79	0x3f042c27	0.5162987
80	0x3bb8d380	0.005640447
81	0x3efa9d74	0.48948252
82	0x3e92f922	0.28705698
83	0x3daa2a88	0.083088934
84	0x3f3a8269	0.7285524
85	0x3f4d3723	0.80162257
86	0x3e9872e0	0.29775143
87	0x3c0e9e40	0.008704722
88	0x3f5ee8de	0.8707408
89	0x3ee2d6a8	0.44304395
90	0x3f5564d2	0.83356965
91	0x3f6d215d	0.92629033
92	0x3e31c31c	0.17359585
93	0x3ebb9cfc	0.36643207
94	0x3ef3bcc4	0.47604954
95	0x3f3883a0	0.72075844
96	0x3f775519	0.96614224
97	0x3f1dae7c	0.6159437
98	0x3db539c8	0.088489115
99	0x3f67f7ca	0.9061247
100	0x3f1e5a90	0.6185694
101	0x3f3efea7	0.7460732
102	0x3f6ae634	0.9175751
103	0x3e51e544	0.20497614
104	0x3f154afd	0.5831755
105	0x3d4e6220	0.050386548
106	0x3f04b4d4	0.5183842
107	0x3f389bc9	0.7211271
108	0x3f302988	0.6881337
109	0x3ec1700a	0.37780792
110	0x3efacb44	0.48983204
111	0x3f7518e0	0.9574108
112	0x3e66fbe0	0.2255702
113	0x3e4942f0	0.19654441
114	0x3f62e849	0.8863569
115	0x3ef7bc08	0.48385644
116	0x3e9e6310	0.30934954
117	0x3f1ff2db	0.62479943
118	0x3e6a44dc	0.2287783
119	0x3f32889b	0.69739693
120	0x3f238310	0.6387186
121	0x3f7cfc01	0.9882203
122	0x3f5c74d9	0.86115795
123	0x3eed36b0	0.46330786
124	0x3e446e60	0.1918273
125	0x3e711824	0.23544365
126	0x3f465e8c	0.7748802
127	0x3e48a1a0	0.19592905

bn1.bias f4 [128]
0	0x00000000	0.0
1	0x00000000	0.0
2	0x00000000	0.0
3	0x00000000	0.0
4	0x00000000	0.0
5	0x00000000	0.0
6	0x00000000	0.0
7	0x00000000	0.0
8	0x00000000	0.0
9	0x00000000	0.0
10	0x00000000	0.0
11	0x00000000	0.0
12	0x00000000	0.0
13	0x00000000	0.0
14	0x00000000	0.0
15	0x00000000	0.0
16	0x00000000	0.0
17	0x00000000	0.0
18	0x00000000	0.0
19	0x00000000	0.0
20	0x00000000	0.0
21	0x00000000	0.0
22	0x00000000	0.0
23	0x00000000	0.0
24	0x00000000	0.0
25	0x00000000	0.0
26	0x00000000	0.0
27	0x00000000	0.0
28	0x00000000	0.0
29	0x00000000	0.0
30	0x00000000	0.0
31	0x00000000	0.0
32	0x00000000	0.0
33	0x00000000	0.0
34	0x00000000	0.0
35	0x00000000	0.0
36	0x00000000	0.0
37	0x00000000	0.0
38	0x00000000	0.0
39	0x00000000	0.0
40	0x00000000	0.0
41	0x00000000	0.0
42	0x00000000	0.0
43	0x00000000	0.0
44	0x00000000	0.0
45	0x00000000	0.0
46	0x00000000	0.0
47	0x00000000	0.0
48	0x00000000	0.0
49	0x00000000	0.0
50	0x00000000	0.0
51	0x00000000	0.0
52	0x00000000	0.0
53	0x00000000	0.0
54	0x00000000	0.0
55	0x00000000	0.0
56	0x00000000	0.0
57	0x00000000	0.0
58	0x00000000	0.0
59	0x00000000	0.0
60	0x00000000	0.0
61	0x00000000	0.0
62	0x00000000	0.0
63	0x00000000	0.0
64	0x00000000	0.0
65	0x00000000	0.0
66	0x00000000	0.0
67	0x00000000	0.0
68	0x00000000	0.0
69	0x00000000	0.0
70	0x00000000	0.0
71	0x00000000	0.0
72	0x00000000	0.0
73	0x00000000	0.0
74	0x00000000	0.0
75	0x00000000	0.0
76	0x00000000	0.0
77	0x00000000	0.0
78	0x00000000	0.0
79	0x00000000	0.0
80	0x00000000	0.0
81	0x00000000	0.0
82	0x00000000	0.0
83	0x00000000	0.0
84	0x00000000	0.0
85	0x00000000	0.0
86	0x00000000	0.0
87	0x00000000	0.0
88	0x00000000	0.0
89	0x00000000	0.0
90	0x00000000	0.0
91	0x00000000	0.0
92	0x00000000	0.0
93	0x00000000	0.0
94	0x00000000	0.0
95	0x00000000	0.0
96	0x00000000	0.0
97	0x00000000	0.0
98	0x00000000	0.0
99	0x00000000	0.0
100	0x00000000	0.0
101	0x00000000	0.0
102	0x00000000	0.0
103	0x00000000	0.0
104	0x00000000	0.0
105	0x00000000	0.0
106	0x00000000	0.0
107	0x00000000	0.0
108	0x00000000	0.0
109	0x00000000	0.0
110	0x00000000	0.0
111	0x00000000	0.0
112	0x00000000	0.0
113	0x00000000	0.0
114	0x00000000	0.0
115	0x00000000	0.0
116	0x00000000	0.0
117	0x00000000	0.0
118	0x00000000	0.0
119	0x00000000	0.0
120	0x00000000	0.0
121	0x00000000	0.0
122	0x00000000	0.0
123	0x00000000	0.0
124	0x00000000	0.0
125	0x00000000	0.0
126	0x00000000	0.0
127	0x00000000	0.0

bn1.running_mean f4 [128]
0	0x00000000	0.0
1	0x00000000	0.0
2	0x00000000	0.0
3	0x00000000	0.0
4	0x00000000	0.0
5	0x00000000	0.0
6	0x00000000	0.0
7	0x00000000	0.0
8	0x00000000	0.0
9	0x00000000	0.0
10	0x00000000	0.0
11	0x00000000	0.0
12	0x00000000	0.0
13	0x00000000	0.0
14	0x00000000	0.0
15	0x00000000	0.0
16	0x00000000	0.0
17	0x00000000	0.0
18	0x00000000	0.0
19	0x00000000	0.0
20	0x00000000	0.0
21	0x00000000	0.0
22	0x00000000	0.0
23	0x00000000	0.0
24	0x00000000	0.0
25	0x00000000	0.0
26	0x00000000	0.0
27	0x00000000	0.0
28	0x00000000	0.0
29	0x00000000	0.0
30	0x00000000	0.0
31	0x00000000	0.0
32	0x00000000	0.0
33	0x00000000	0.0
34	0x00000000	0.0
35	0x00000000	0.0
36	0x00000000	0.0
37	0x00000000	0.0
38	0x00000000	0.0
39	0x00000000	0.0
40	0x00000000	0.0
41	0x00000000	0.0
42	0x00000000	0.0
43	0x00000000	0.0
44	0x00000000	0.0
45	0x00000000	0.0
46	0x00000000	0.0
47	0x00000000	0.0
48	0x00000000	0.0
49	0x00000000	0.0
50	0x00000000	0.0
51	0x00000000	0.0
52	0x00000000	0.0
53	0x00000000	0.0
54	0x00000000	0.0
55	0x00000000	0.0
56	0x00000000	0.0
57	0x00000000	0.0
58	0x00000000	0.0
59	0x00000000	0.0
60	0x00000000	0.0
61	0x00000000	0.0
62	0x00000000	0.0
63	0x00000000	0.0
64	0x00000000	0.0
65	0x00000000	0.0
66	0x00000000	0.0
67	0x00000000	0.0
68	0x00000000	0.0
69	0x00000000	0.0
70	0x00000000	0.0
71	0x00000000	0.0
72	0x00000000	0.0
73	0x00000000	0.0
74	0x00000000	0.0
75	0x00000000	0.0
76	0x00000000	0.0
77	0x00000000	0.0
78	0x00000000	0.0
79	0x00000000	0.0
80	0x00000000	0.0
81	0x00000000	0.0
82	0x00000000	0.0
83	0x00000000	0.0
84	0x00000000	0.0
85	0x00000000	0.0
86	0x00000000	0.0
87	0x00000000	0.0
88	0x00000000	0.0
89	0x00000000	0.0
90	0x00000000	0.0
91	0x00000000	0.0
92	0x00000000	0.0
93	0x00000000	0.0
94	0x00000000	0.0
95	0x00000000	0.0
96	0x00000000	0.0
97	0x00000000	0.0
98	0x00000000	0.0
99	0x00000000	0.0
100	0x00000000	0.0
101	0x00000000	0.0
102	0x00000000	0.0
103	0x00000000	0.0
104	0x00000000	0.0
105	0x00000000	0.0
106	0x00000000	0.0
107	0x00000000	0.0
108	0x00000000	0.0
109	0x00000000	0.0
110	0x00000000	0.0
111	0x00000000	0.0
112	0x00000000	0.0
113	0x00000000	0.0
114	0x00000000	0.0
115	0x00000000	0.0
116	0x00000000	0.0
117	0x00000000	0.0
118	0x00000000	0.0
119	0x00000000	0.0
120	0x00000000	0.0
121	0x00000000	0.0
122	0x00000000	0.0
123	0x00000000	0.0
124	0x00000000	0.0
125	0x00000000	0.0
126	0x00000000	0.0
127	0x00000000	0.0

bn1.running_var f4 [128]
0	0x3f800000	1.0
1	0x3f800000	1.0
2	0x3f800000	1.0
3	0x3f800000	1.0
4	0x3f800000	1.0
5	0x3f800000	1.0
6	0x3f800000	1.0
7	0x3f800000	1.0
8	0x3f800000	1.0
9	0x3f800000	1.0
10	0x3f800000	1.0
11	0x3f800000	1.0
12	0x3f800000	1.0
13	0x3f800000	1.0
14	0x3f800000	1.0
15	0x3f800000	1.0
16	0x3f800000	1.0
17	0x3f800000	1.0
18	0x3f800000	1.0
19	0x3f800000	1.0
20	0x3f800000	1.0
21	0x3f800000	1.0
22	0x3f800000	1.0
23	0x3f800000	1.0
24	0x3f800000	1.0
25	0x3f800000	1.0
26	0x3f800000	1.0
27	0x3f800000	1.0
28	0x3f800000	1.0
29	0x3f800000	1.0
30	0x3f800000	1.0
31	0x3f800000	1.0
32	0x3f800000	1.0
33	0x3f800000	1.0
34	0x3f800000	1.0
35	0x3f800000	1.0
36	0x3f800000	1.0
37	0x3f800000	1.0
38	0x3f800000	1.0
39	0x3f800000	1.0
40	0x3f800000	1.0
41	0x3f800000	1.0
42	0x3f800000	1.0
43	0x3f800000	1.0
44	0x3f800000	1.0
45	0x3f800000	1.0
46	0x3f800000	1.0
47	0x3f800000	1.0
48	0x3f800000	1.0
49	0x3f800000	1.0
50	0x3f800000	1.0
51	0x3f800000	1.0
52	0x3f800000	1.0
53	0x3f800000	1.0
54	0x3f800000	1.0
55	0x3f800000	1.0
56	0x3f800000	1.0
57	0x3f800000	1.0
58	0x3f800000	1.0
59	0x3f800000	1.0
60	0x3f800000	1.0
61	0x3f800000	1.0
62	0x3f800000	1.0
63	0x3f800000	1.0
64	0x3f800000	1.0
65	0x3f800000	1.0
66	0x3f800000	1.0
67	0x3f800000	1.0
68	0x3f800000	1.0
69	0x3f800000	1.0
70	0x3f800000	1.0
71	0x3f800000	1.0
72	0x3f800000	1.0
73	0x3f800000	1.0
74	0x3f800000	1.0
75	0x3f800000	1.0
76	0x3f800000	1.0
77	0x3f800000	1.0
78	0x3f800000	1.0
79	0x3f800000	1.0
80	0x3f800000	1.0
81	0x3f800000	1.0
82	0x3f800000	1.0
83	0x3f800000	1.0
84	0x3f800000	1.0
85	0x3f800000	1.0
86	0x3f800000	1.0
87	0x3f800000	1.0
88	0x3f800000	1.0
89	0x3f800000	1.0
90	0x3f800000	1.0
91	0x3f800000	1.0
92	0x3f800000	1.0
93	0x3f800000	1.0
94	0x3f800000	1.0
95	0x3f800000	1.0
96	0x3f800000	1.0
97	0x3f800000	1.0
98	0x3f800000	1.0
99	0x3f800000	1.0
100	0x3f800000	1.0
101	0x3f800000	1.0
102	0x3f800000	1.0
103	0x3f800000	1.0
104	0x3f800000	1.0
105	0x3f800000	1.0
106	0x3f800000	1.0
107	0x3f800000	1.0
108	0x3f800000	1.0
109	0x3f800000	1.0
110	0x3f800000	1.0
111	0x3f800000	1.0
112	0x3f800000	1.0
113	0x3f800000	1.0
114	0x3f800000	1.0
115	0x3f800000	1.0
116	0x3f800000	1.0
117	0x3f800000	1.0
118	0x3f800000	1.0
119	0x3f800000	1.0
120	0x3f800000	1.0
121	0x3f800000	1.0
122	0x3f800000	1.0
123	0x3f800000	1.0
124	0x3f800000	1.0
125	0x3f800000	1.0
126	0x3f800000	1.0
127	0x3f800000	1.0

bn2.weight f4 [128]
0	0x3f58087c	0.84387946
1	0x3e3994a4	0.18123108
2	0x3e510158	0.20410669
3	0x3f548094	0.83008695
4	0x3e7b05a0	0.24513865
5	0x3f3f1026	0.74634016
6	0x3f6f101d	0.9338396
7	0x3f377497	0.71662277
8	0x3f5a0f3d	0.851795
9	0x3f5360d1	0.82569605
10	0x3e15d004	0.14630133
11	0x3f24d3b8	0.6438556
12	0x3f258391	0.6465388
13	0x3f6c08d7	0.9220099
14	0x3d861510	0.06546986
15	0x3f6e57fa	0.9310299
16	0x3f1aa4ee	0.6040791
17	0x3f50bd97	0.8153929
18	0x3e3011c8	0.17194283
19	0x3ec56fe2	0.38561922
20	0x3f511522	0.8167287
21	0x3f6fe5a9	0.9370981
22	0x3f0ce92a	0.5504328
23	0x3f23555b	0.6380212
24	0x3f200a7f	0.62516016
25	0x3f3e8e85	0.7443622
26	0x3f1898d5	0.59608203
27	0x3f7c1c78	0.9848094
28	0x3f1bd397	0.60869735
29	0x3e48ac4c	0.19596976
30	0x3f3001c0	0.6875267
31	0x3cefd360	0.029275596
32	0x3f31e230	0.6948576
33	0x3f4b74fb	0.79475373
34	0x3f5a417a	0.8525616
35	0x3e38b7b8	0.18038833
36	0x3f3e4f71	0.7433997
37	0x3f5dedb6	0.86690843
38	0x3ed30bce	0.41219944
39	0x3ec9947e	0.39371103
40	0x3eddfc0a	0.43356353
41	0x3ec19044	0.37805378
42	0x3ea70068	0.32617497
43	0x3d601af0	0.05471319
44	0x3f7d3502	0.9890901
45	0x3f51a899	0.81897885
46	0x3f418d95	0.7560666
47	0x3f109838	0.5648227
48	0x3e8d2b60	0.27572155
49	0x3ec11902	0.37714392
50	0x3f240c15	0.64080936
51	0x3ef01ac2	0.46895415
52	0x3f164309	0.5869604
53	0x3f35be09	0.70993096
54	0x3d395b30	0.04525298
55	0x3e087594	0.13326102
56	0x3e86d376	0.26333207
57	0x3eada14e	0.33912128
58	0x3f13a044	0.5766642
59	0x3f764a60	0.9620724
60	0x3f2cdea9	0.6752725
61	0x3edd66a0	0.4324236
62	0x3eca4d00	0.3951187
63	0x3ec7efc4	0.39050114
64	0x3ef7d4cc	0.4840454
65	0x3ef53744	0.47893727
66	0x3e4fa3e8	0.20277369
67	0x3f6c596a	0.92323935
68	0x3e314ba8	0.17314017
69	0x3d8ca648	0.06867653
70	0x3f6dda14	0.92910886
71	0x3eb93930	0.36176443
72	0x3eb2d2e8	0.34926534
73	0x3e37dd94	0.17955619
74	0x3e7f507c	0.24933046
75	0x3d8c6ec0	0.068570614
76	0x3f1eb87a	0.6200024
77	0x3f2c91e5	0.6741012
78	0x3e9da676	0.30791062
79	0x3dfdd200	0.1239357
80	0x3f5a658c	0.853112
81	0x3e129ef8	0.14318454
82	0x3f76aa9b	0.96354073
83	0x3f2934fc	0.6609647
84	0x3c80fba0	0.015744984
85	0x3d00a860	0.031410575
86	0x3d88d2b0	0.066808105
87	0x3f0db800	0.55358887
88	0x3d152830	0.03641528
89	0x3f54981c	0.830446
90	0x3f74424a	0.9541365
91	0x3f194e43	0.5988504
92	0x3f7cd58a	0.98763335
93	0x3df43010	0.1192323
94	0x3e5e40f0	0.21704459
95	0x3ecc83ee	0.39944404
96	0x3ea54f86	0.32287234
97	0x3e22ec9c	0.15910572
98	0x3eab53ca	0.33462363
99	0x3c38dc40	0.01128298
100	0x3f6fdfcd	0.9370087
101	0x3f710559	0.94148785
102	0x3e016740	0.12637043
103	0x3f182756	0.5943502
104	0x3dceec48	0.10103661
105	0x3f383995	0.71962863
106	0x3ea69df8	0.32542396
107	0x3f79bb61	0.9755154
108	0x3f742042	0.9536172
109	0x3f31fe7b	0.6952893
110	0x3e19631c	0.14979213
111	0x3e1c3e70	0.15258193
112	0x3e3899d8	0.18027437
113	0x3ed0af3c	0.40758693
114	0x3f7784b5	0.9668687
115	0x3e4c23a0	0.19935465
116	0x3ecc8634	0.3994614
117	0x3ec73034	0.38903964
118	0x3f642dc3	0.89132327
119	0x3ee48a36	0.44636697
120	0x3f27ab2d	0.6549557
121	0x3ec759ba	0.38935643
122	0x3dcc1ec0	0.099668026
123	0x3e41d00c	0.1892702
124	0x3f1c64b9	0.6109119
125	0x3eab37d6	0.33441037
126	0x3f059a95	0.52189
127	0x3eb8d234	0.36097872

bn2.bias f4 [128]
0	0x00000000	0.0
1	0x00000000	0.0
2	0x00000000	0.0
3	0x00000000	0.0
4	0x00000000	0.0
5	0x00000000	0.0
6	0x00000000	0.0
7	0x00000000	0.0
8	0x00000000	0.0
9	0x00000000	0.0
10	0x00000000	0.0
11	0x00000000	0.0
12	0x00000000	0.0
13	0x00000000	0.0
14	0x00000000	0.0
15	0x00000000	0.0
16	0x00000000	0.0
17	0x00000000	0.0
18	0x00000000	0.0
19	0x00000000	0.0
20	0x00000000	0.0
21	0x00000000	0.0
22	0x00000000	0.0
23	0x00000000	0.0
24	0x00000000	0.0
25	0x00000000	0.0
26	0x00000000	0.0
27	0x00000000	0.0
28	0x00000000	0.0
29	0x00000000	0.0
30	0x00000000	0.0
31	0x00000000	0.0
32	0x00000000	0.0
33	0x00000000	0.0
34	0x00000000	0.0
35	0x00000000	0.0
36	0x00000000	0.0
37	0x00000000	0.0
38	0x00000000	0.0
39	0x00000000	0.0
40	0x00000000	0.0
41	0x00000000	0.0
42	0x00000000	0.0
43	0x00000000	0.0
44	0x00000000	0.0
45	0x00000000	0.0
46	0x00000000	0.0
47	0x00000000	0.0
48	0x00000000	0.0
49	0x00000000	0.0
50	0x00000000	0.0
51	0x00000000	0.0
52	0x00000000	0.0
53	0x00000000	0.0
54	0x00000000	0.0
55	0x00000000	0.0
56	0x00000000	0.0
57	0x00000000	0.0
58	0x00000000	0.0
59	0x00000000	0.0
60	0x00000000	0.0
61	0x00000000	0.0
62	0x00000000	0.0
63	0x00000000	0.0
64	0x00000000	0.0
65	0x00000000	0.0
66	0x00000000	0.0
67	0x00000000	0.0
68	0x00000000	0.0
69	0x00000000	0.0
70	0x00000000	0.0
71	0x00000000	0.0
72	0x00000000	0.0
73	0x00000000	0.0
74	0x00000000	0.0
75	0x00000000	0.0
76	0x00000000	0.0
77	0x00000000	0.0
78	0x00000000	0.0
79	0x00000000	0.0
80	0x00000000	0.0
81	0x00000000	0.0
82	0x00000000	0.0
83	0x00000000	0.0
84	0x00000000	0.0
85	0x00000000	0.0
86	0x00000000	0.0
87	0x00000000	0.0
88	0x00000000	0.0
89	0x00000000	0.0
90	0x00000000	0.0
91	0x00000000	0.0
92	0x00000000	0.0
93	0x00000000	0.0
94	0x00000000	0.0
95	0x00000000	0.0
96	0x00000000	0.0
97	0x00000000	0.0
98	0x00000000	0.0
99	0x00000000	0.0
100	0x00000000	0.0
101	0x00000000	0.0
102	0x00000000	0.0
103	0x00000000	0.0
104	0x00000000	0.0
105	0x00000000	0.0
106	0x00000000	0.0
107	0x00000000	0.0
108	0x00000000	0.0
109	0x00000000	0.0
110	0x00000000	0.0
111	0x00000000	0.0
112	0x00000000	0.0
113	0x00000000	0.0
114	0x00000000	0.0
115	0x00000000	0.0
116	0x00000000	0.0
117	0x00000000	0.0
118	0x00000000	0.0
119	0x00000000	0.0
120	0x00000000	0.0
121	0x00000000	0.0
122	0x00000000	0.0
123	0x00000000	0.0
124	0x00000000	0.0
125	0x00000000	0.0
126	0x00000000	0.0
127	0x00000000	0.0

bn2.running_mean f4 [128]
0	0x00000000	0.0
1	0x00000000	0.0
2	0x00000000	0.0
3	0x00000000	0.0
4	0x00000000	0.0
5	0x00000000	0.0
6	0x00000000	0.0
7	0x00000000	0.0
8	0x00000000	0.0
9	0x00000000	0.0
10	0x00000000	0.0
11	0x00000000	0.0
12	0x00000000	0.0
13	0x00000000	0.0
14	0x00000000	0.0
15	0x00000000	0.0
16	0x00000000	0.0
17	0x00000000	0.0
18	0x00000000	0.0
19	0x00000000	0.0
20	0x00000000	0.0
21	0x00000000	0.0
22	0x00000000	0.0
23	0x00000000	0.0
24	0x00000000	0.0
25	0x00000000	0.0
26	0x00000000	0.0
27	0x00000000	0.0
28	0x00000000	0.0
29	0x00000000	0.0
30	0x00000000	0.0
31	0x00000000	0.0
32	0x00000000	0.0
33	0x00000000	0.0
34	0x00000000	0.0
35	0x00000000	0.0
36	0x00000000	0.0
37	0x00000000	0.0
38	0x00000000	0.0
39	0x00000000	0.0
40	0x00000000	0.0
41	0x00000000	0.0
42	0x00000000	0.0
43	0x00000000	0.0
44	0x00000000	0.0
45	0x00000000	0.0
46	0x00000000	0.0
47	0x00000000	0.0
48	0x00000000	0.0
49	0x00000000	0.0
50	0x00000000	0.0
51	0x00000000	0.0
52	0x00000000	0.0
53	0x00000000	0.0
54	0x00000000	0.0
55	0x00000000	0.0
56	0x00000000	0.0
57	0x00000000	0.0
58	0x00000000	0.0
59	0x00000000	0.0
60	0x00000000	0.0
61	0x00000000	0.0
62	0x00000000	0.0
63	0x00000000	0.0
64	0x00000000	0.0
65	0x00000000	0.0
66	0x00000000	0.0
67	0x00000000	0.0
68	0x00000000	0.0
69	0x00000000	0.0
70	0x00000000	0.0
71	0x00000000	0.0
72	0x00000000	0.0
73	0x00000000	0.0
74	0x00000000	0.0
75	0x00000000	0.0
76	0x00000000	0.0
77	0x00000000	0.0
78	0x00000000	0.0
79	0x00000000	0.0
80	0x00000000	0.0
81	0x00000000	0.0
82	0x00000000	0.0
83	0x00000000	0.0
84	0x00000000	0.0
85	0x00000000	0.0
86	0x00000000	0.0
87	0x00000000	0.0
88	0x00000000	0.0
89	0x00000000	0.0
90	0x00000000	0.0
91	0x00000000	0.0
92	0x00000000	0.0
93	0x00000000	0.0
94	0x00000000	0.0
95	0x00000000	0.0
96	0x00000000	0.0
97	0x00000000	0.0
98	0x00000000	0.0
99	0x00000000	0.0
100	0x00000000	0.0
101	0x00000000	0.0
102	0x00000000	0.0
103	0x00000000	0.0
104	0x00000000	0.0
105	0x00000000	0.0
106	0x00000000	0.0
107	0x00000000	0.0
108	0x00000000	0.0
109	0x00000000	0.0
110	0x00000000	0.0
111	0x00000000	0.0
112	0x00000000	0.0
113	0x00000000	0.0
114	0x00000000	0.0
115	0x00000000	0.0
116	0x00000000	0.0
117	0x00000000	0.0
118	0x00000000	0.0
119	0x00000000	0.0
120	0x00000000	0.0
121	0x00000000	0.0
122	0x00000000	0.0
123	0x00000000	0.0
124	0x00000000	0.0
125	0x00000000	0.0
126	0x00000000	0.0
127	0x00000000	0.0

bn2.running_var f4 [128]
0	0x3f800000	1.0
1	0x3f800000	1.0
2	0x3f800000	1.0
3	0x3f800000	1.0
4	0x3f800000	1.0
5	0x3f800000	1.0
6	0x3f800000	1.0
7	0x3f800000	1.0
8	0x3f800000	1.0
9	0x3f800000	1.0
10	0x3f800000	1.0
11	0x3f800000	1.0
12	0x3f800000	1.0
13	0x3f800000	1.0
14	0x3f800000	1.0
15	0x3f800000	1.0
16	0x3f800000	1.0
17	0x3f800000	1.0
18	0x3f800000	1.0
19	0x3f800000	1.0
20	0x3f800000	1.0
21	0x3f800000	1.0
22	0x3f800000	1.0
23	0x3f800000	1.0
24	0x3f800000	1.0
25	0x3f800000	1.0
26	0x3f800000	1.0
27	0x3f800000	1.0
28	0x3f800000	1.0
29	0x3f800000	1.0
30	0x3f800000	1.0
31	0x3f800000	1.0
32	0x3f800000	1.0
33	0x3f800000	1.0
34	0x3f800000	1.0
35	0x3f800000	1.0
36	0x3f800000	1.0
37	0x3f800000	1.0
38	0x3f800000	1.0
39	0x3f800000	1.0
40	0x3f800000	1.0
41	0x3f800000	1.0
42	0x3f800000	1.0
43	0x3f800000	1.0
44	0x3f800000	1.0
45	0x3f800000	1.0
46	0x3f800000	1.0
47	0x3f800000	1.0
48	0x3f800000	1.0
49	0x3f800000	1.0
50	0x3f800000	1.0
51	0x3f800000	1.0
52	0x3f800000	1.0
53	0x3f800000	1.0
54	0x3f800000	1.0
55	0x3f800000	1.0
56	0x3f800000	1.0
57	0x3f800000	1.0
58	0x3f800000	1.0
59	0x3f800000	1.0
60	0x3f800000	1.0
61	0x3f800000	1.0
62	0x3f800000	1.0
63	0x3f800000	1.0
64	0x3f800000	1.0
65	0x3f800000	1.0
66	0x3f800000	1.0
67	0x3f800000	1.0
68	0x3f800000	1.0
69	0x3f800000	1.0
70	0x3f800000	1.0
71	0x3f800000	1.0
72	0x3f800000	1.0
73	0x3f800000	1.0
74	0x3f800000	1.0
75	0x3f800000	1.0
76	0x3f800000	1.0
77	0x3f800000	1.0
78	0x3f800000	1.0
79	0x3f800000	1.0
80	0x3f800000	1.0
81	0x3f800000	1.0
82	0x3f800000	1.0
83	0x3f800000	1.0
84	0x3f800000	1.0
85	0x3f800000	1.0
86	0x3f800000	1.0
87	0x3f800000	1.0
88	0x3f800000	1.0
89	0x3f800000	1.0
90	0x3f800000	1.0
91	0x3f800000	1.0
92	0x3f800000	1.0
93	0x3f800000	1.0
94	0x3f800000	1.0
95	0x3f800000	1.0
96	0x3f800000	1.0
97	0x3f800000	1.0
98	0x3f800000	1.0
99	0x3f800000	1.0
100	0x3f800000	1.0
101	0x3f800000	1.0
102	0x3f800000	1.0
103	0x3f800000	1.0
104	0x3f800000	1.0
105	0x3f800000	1.0
106	0x3f800000	1.0
107	0x3f800000	1.0
108	0x3f800000	1.0
109	0x3f800000	1.0
110	0x3f800000	1.0
111	0x3f800000	1.0
112	0x3f800000	1.0
113	0x3f800000	1.0
114	0x3f800000	1.0
115	0x3f800000	1.0
116	0x3f800000	1.0
117	0x3f800000	1.0
118	0x3f800000	1.0
119	0x3f800000	1.0
120	0x3f800000	1.0
121	0x3f800000	1.0
122	0x3f800000	1.0
123	0x3f800000	1.0
124	0x3f800000	1.0
125	0x3f800000	1.0
126	0x3f800000	1.0
127	0x3f800000	1.0
